best_model.pth (torch, 155627 bytes, 11 tensors)

layers.0.weight f4 [32, 2, 3, 3]
-0.1193928 0.17369057 -0.2982867 -0.27617726 -0.05487286 -0.053430207 0.011688548 0.54783154
0.1399176 -0.06507095 -0.1688148 -0.17810644 -0.38088876 -0.2716771 -0.24725425 0.007412571
0.099811316 0.093504496 -0.2301553 -0.16953953 0.024332117 0.14908196 -0.09373584 0.167632
-0.085776135 -0.015284851 0.16217016 -0.34103858 -0.17003709 -0.036920376 0.09228257 0.4154611
0.09171068 -0.2784767 -0.25159496 -0.1312341 -0.07300426 0.14820704 0.13243556 0.15604763
-0.11056639 -0.15623721 -0.00708625 -0.4951642 -0.35965222 -0.19895811 -0.024089424 0.12612365
-0.25250334 -0.23748177 0.09105145 0.16476114 -0.028022282 0.065479495 0.029959366 -0.2834423
-0.09815584 -0.31391972 -0.3100651 -0.27002314 -0.022004107 -0.049525525 -0.28820744 -0.042079967
0.052229714 -0.10645431 -0.095715314 -0.0099902395 0.08734394 0.11671386 -0.25175884 -0.14883599
0.060618088 0.13973132 0.15406942 0.17680714 -0.0071801026 -0.25636342 -0.039360728 -0.24182113
-0.29309908 0.14046858 0.1365279 -0.28663188 -0.035821736 -0.061291937 -0.06118477 -0.21223713
0.056804795 -0.18092854 0.10275564 0.026799731 0.03934912 0.061229713 -0.3172123 -0.28159565
0.08071185 -0.03668057 -0.31309646 -0.15417914 0.16881083 0.09024301 -0.04356089 -0.014335692
-0.20692067 0.06680571 -0.11618052 -0.1399873 -0.2113669 -0.12799369 -0.27380675 0.46214756
0.06682376 0.3601673 0.36820143 -0.37721652 -0.2088363 0.110451944 -0.059190612 0.016953936
0.20961493 0.030603092 -0.017789584 0.0339821 -0.35416117 -0.17383829 -0.085507765 -0.11823391
0.16474201 -0.5542875 -0.5531088 -0.08795348 0.18688354 0.27975327 0.36122403 -0.12787125
-0.05356258 -0.14098546 -0.024641396 0.093913354 0.17428432 0.09011855 0.18494867 -0.05290423
-0.2455221 -0.15269198 0.12572245 -0.036829572 -0.15882944 -0.22052132 -0.25289807 -0.23916866
-0.08885477 0.116347834 0.11074345 -0.24713542 0.1352283 -0.19947782 -0.06626523 -0.1040155
-0.059141997 -0.05932563 5.818592e-05 -0.8933474 0.24838269 0.49590898 -0.5313564 0.12858865
0.061047804 -0.010383616 0.14012481 -0.0014404013 0.33964375 0.010725723 -0.5520098 0.27425468
-0.23227562 -0.05697509 0.34470832 -0.32005352 -0.22101778 -0.3060956 0.16384885 0.045671683
0.105676524 0.05111911 -0.06312903 -0.04540289 -0.21949627 0.110557064 0.1520801 0.10199749
-0.19717479 -0.066810064 -0.0853238 -0.17241602 -0.25886297 0.15667902 -0.2590205 -0.16426271
-0.13737287 0.028925944 -0.33773434 -0.3231402 -0.24989727 0.02031623 -0.23828311 0.115070626
-0.013461256 -0.08488545 -0.026895445 -0.083127014 -0.012653096 -0.07309812 -0.02740455 0.0059885345
-0.33254945 -0.28778154 0.039405107 -0.34191656 -0.18166336 0.076205246 -0.060654085 -0.15577973
-0.36603335 0.053597067 -0.20204343 -0.118146084 -0.1470648 -0.07970275 -0.048052393 0.07654426
-0.08950692 0.10193699 0.016571386 -0.2849103 -0.028582204 -0.29503724 -0.23618335 -0.06774047
-0.04795862 0.043030012 -0.21265353 -0.057323214 0.08048424 -0.24836922 0.1171384 -0.22502796
-0.001401323 -0.097793855 -0.16052298 0.023866994 0.1446519 -0.14799027 -0.22189416 -0.15722844
00000000: 3684 f4bd f1db 313e 09b9 98be 1b67 8dbe
00000010: 5dc2 60bd a2d9 5abd 5381 3f3c b03e 0c3f
00000020: 8f46 0f3e eb43 85bd c9dd 2cbe 8961 36be
00000030: da03 c3be 4319 8bbe 3830 7dbe 27e5 f23b
00000040: e069 cc3d 497f bf3d d5ad 6bbe c59b 2dbe
00000050: 2654 c73c f1a8 183e 93f8 bfbd b9a7 2b3e
00000060: 66ab afbd 506d 7abc ef0f 263e 9c9c aebe
00000070: 341e 2ebe d239 17bd a5fe bc3d 51b7 d43e
00000080: cfd2 bb3d 7f94 8ebe 0ed1 80be 3b62 06be
00000090: 4283 95bd 96c3 173e 309d 073e f3ca 1f3e
000000a0: a270 e2bd a6fc 1fbe c633 e8bb 2986 fdbe
000000b0: 5624 b8be adbb 4bbe 2f57 c5bc 8f26 013e
000000c0: 1e48 81be 6c2e 73be 2f79 ba3d 25b7 283e
000000d0: fc8e e5bc 1d1a 863d 586d f53c 591f 91be
000000e0: ee05 c9bd 16ba a0be dac0 9ebe 7940 8abe
000000f0: f541 b4bc 47db 4abd ed8f 93be 0b5c 2cbd
00000100: d3ee 553d b804 dabd 6406 c4bd 1aae 23bc
00000110: 61e1 b23d ad07 ef3d 89e6 80be 7668 18be
00000120: ac4a 783d ba15 0f3e 60c4 1d3e ee0c 353e
00000130: 1147 ebbb 1142 83be b738 21bd f59f 77be
00000140: 1511 96be ffd6 0f3e f8cd 0b3e 6ac1 92be
00000150: d0b9 12bd 410d 7bbd e29c 7abd b154 59be
00000160: 25ac 683d 5545 39be 8d71 d23d 1c8b db3c
00000170: 8b2c 213d 02cc 7a3d a769 a2be 4e2d 90be
00000180: 414c a53d 5e3e 16bd 2e4e a0be 23e1 1dbe
00000190: bfdc 2c3e 54d1 b83d e76c 32bd 40e0 6abc
000001a0: 03e3 53be 6fd1 883d 0df0 edbd d558 0fbe
000001b0: 9170 58be c710 03be 6630 8cbe 9b9e ec3e
000001c0: e5da 883d d967 b83e e684 bc3e 8622 c1be
000001d0: 2fd9 55be a134 e23d db71 72bd fbe2 8a3c
000001e0: 4ca5 563e 56b3 fa3c 76bb 91bc d130 0b3d
000001f0: 9d54 b5be aa02 32be b21e afbd 9f24 f2bd
00000200: 21b2 283e c9e5 0dbf 8a98 0dbf f420 b4bd
00000210: 665e 3f3e d23b 8f3e 5bf2 b83e aef0 02be
00000220: 7064 5bbd 7e5e 10be c1dc c9bc a555 c03d
00000230: 9777 323e 1390 b83d 2f63 3d3e 1bb2 58bd
00000240: 256a 7bbe 495b 1cbe 63bd 003e 9bda 16bd
00000250: 2fa4 22be 57d0 61be db7b 81be a1e8 74be
00000260: 7df9 b5bd c647 ee3d 76cd e23d 1111 7dbe
00000270: 4a79 0a3e ea43 4cbe 11b6 87bd 1406 d5bd
00000280: e13e 72bd 6fff 72bd a80c 7438 6ab2 64bf
00000290: 0858 7e3e c8e7 fd3e f906 08bf beac 033e
000002a0: 430d 7a3d 0b20 2abc e17c 0f3e d9cb bcba
000002b0: c9e5 ad3e f1ba 2f3c 8450 0dbf 1c6b 8c3e
000002c0: a9d9 6dbe b65e 69bd 9c7d b03e 0ede a3be
000002d0: 7c52 62be 90b8 9cbe fec7 273e 3b12 3b3d
000002e0: ef6c d83d 4662 513d cb49 81bd 61f8 39bd
000002f0: a1c3 60be be6b e23d e3ba 1b3e 0fe4 d03d
00000300: 30e8 49be b7d3 88bd 3fbe aebd d38d 30be
00000310: b089 84be 7770 203e 569e 84be 7c34 28be
00000320: 79ab 0cbe 1af6 ec3c 84eb acbe a272 a5be
00000330: 12e5 7fbe 396e a63c 7d00 74be 26aa eb3d
00000340: 9a8c 5cbc 6cd8 adbd d653 dcbc 7f3e aabd
00000350: ee4e 4fbc 78b4 95bd 827f e0bc 783b c43b
00000360: ec43 aabe 1a58 93be 4067 213d b00f afbe
00000370: f605 3abe 7f11 9c3d 6b70 78bd b984 1fbe
00000380: b968 bbbe 9988 5b3d 79e4 4ebe 93f6 f1bd
00000390: 2898 16be 323b a3bd 96d2 44bd 3dc3 9c3d
000003a0: 674f b7bd 57c4 d03d b7c0 873c c3df 91be
000003b0: 3a25 eabc 1f0f 97be 0cda 71be 84bb 8abd
000003c0: 4270 44bd 3d40 303d d9c1 59be bfcb 6abd
000003d0: ecd4 a43d 8054 7ebe 42e6 ef3d bb6d 66be
000003e0: 99ac b7ba 2548 c8bd 2360 24be b784 c33c
000003f0: a11f 143e c38a 17be 3938 63be 7e00 21be

layers.0.bias f4 [32]
-0.0683137 -0.21722691 0.13259494 0.074388646 -0.072148755 -0.058646776 -0.22684617 -0.07787153
0.00041981082 0.0600808 -0.020076014 0.034830898 0.036382798 0.032898568 -0.046377882 -0.20077486
-0.2823783 0.15630144 0.009970806 -0.014283481 -0.21180609 0.18919505 0.115507 0.19695272
-0.2753716 -0.1521537 -0.113204755 0.258469 -0.14298528 -0.16705321 -0.10735641 -0.13071859
00000000: 0ee8 8bbd bb70 5ebe f8c6 073e 1359 983d
00000010: bac2 93bd 9a37 70bd 5d4a 68be 1c7b 9fbd
00000020: 0e1a dc39 4917 763d 7476 a4bc d8aa 0e3d
00000030: 2106 153d a6c0 063d bcf6 3dbd ed97 4dbe
00000040: e393 90be 7c0d 203e 975c 233c 4305 6abc
00000050: b2e3 58be 59bc 413e ef8e ec3d f9ad 493e
00000060: 82fd 8cbe 2ece 1bbe e5d7 e7bd 0c56 843e
00000070: bc6a 12be ff0f 2bbe addd dbbd 18db 05be

layers.2.weight f4 [32, 32, 3, 3]
0.03334077 0.06521977 -0.09107711 0.050260574 0.2924127 0.114897765 0.0688373 0.40962094
0.342509 -0.0032287051 -0.03624435 -0.0986389 0.00822519 0.014806106 -0.023104064 0.072413646
0.093582615 0.06086313 0.0043591256 -0.05732048 -0.12253087 -0.060747348 -0.029421777 -0.07288027
-0.023580441 -0.03841009 -0.035358634 -0.061318994 -0.07655577 -0.10681328 -0.091855824 -0.02742059
-0.0864902 -0.037366316 -0.032849938 -0.04608335 -0.08133725 0.014089765 -0.066173695 0.008204126
-0.0872354 -0.04955308 -0.0039292937 -0.06315896 0.015686719 -0.023617515 -0.04870757 0.013805455
0.04925738 0.07316027 0.024738109 0.116235964 0.04032169 0.08956945 0.13715656 0.042500157
0.08313626 0.1548972 0.050337862 0.06470259 0.071406074 0.076942965 -0.057213373 -0.05726106
-0.07396134 -0.0509163 -0.031212477 -0.0074056652 -0.073373325 -0.067186065 -0.038551237 -0.119710654
0.005519173 -0.10225468 -0.056306034 -0.050627466 -0.035102878 -0.008656199 -0.04800919 -0.10217842
-0.012438603 -0.023832204 -0.1725489 -0.5148059 0.14329408 -0.126706 0.1187798 -0.6330349
-0.39895806 -0.8152505 -0.0009443119 -0.030772142 -0.08189581 0.028444137 -0.07306114 -0.026342072
-0.056083165 -0.043888237 -0.041340914 0.016256748 -0.08644493 -0.016872138 -0.040120054 -0.08417891
-0.10757361 -0.07535278 0.011277045 -0.06123109 -0.038146477 -0.038565647 -0.018602027 0.0075630806
-0.0046349205 -0.09736783 -0.050085638 -0.08297473 -0.081521496 -0.03102196 0.0064039687 -0.095499836
-0.009457097 -0.078642786 -0.058459368 0.0033086496 -0.05955917 -0.03975867 -0.09457481 -0.0101522645
-0.06576451 -0.097860076 -0.044895027 -0.09912193 -0.09731465 -0.054531153 -0.0050324867 -0.046771977
0.0003270352 0.034113955 0.0071129203 -0.06044339 -0.025183862 -0.05042847 -0.07716296 -0.018967886
-0.023777125 0.037067134 -0.043874625 -0.044993356 -0.04959441 -0.016973132 -0.09706033 -0.06062595
-0.052720014 -0.010451042 -0.10249383 0.0035482566 -0.02483332 -0.090481915 -0.06260771 0.0067896256
-0.09328133 -0.0661261 -0.034683857 -0.11629364 -0.049628705 -0.049981993 -0.050208893 -0.1501347
0.029207211 -0.094125256 -0.03403543 -0.103547685 -0.100242354 -0.013050777 -0.04150497 -0.045036603
-0.082710326 -0.07284971 -0.0663507 -0.10803037 -0.001493667 -0.004798595 -0.034269407 -0.021409929
0.03469776 0.031926736 -0.16528921 -0.13159887 -0.047194645 -0.08557324 -0.03726025 -0.02916132
-0.0014431011 -0.034304414 0.04977214 -0.063712455 -0.001614016 0.06322952 0.003656819 -0.088095546
-0.038016286 -0.047245376 -0.081713505 -0.06878564 -0.040218484 -0.098719604 -0.042015187 -0.019688286
-0.075403295 -0.0033289022 -0.048798315 -0.024255404 0.008271328 -0.061206073 -0.016937872 -0.06443311
0.07415183 0.14954516 0.44382063 0.05571518 0.22218421 0.43999246 0.113002725 0.16139503
0.22973566 -0.06035077 -0.091729775 -0.015598187 -0.031102624 -0.065717846 -0.058525532 -0.020621497
-0.05016464 0.003839847 0.007883618 -0.07890142 -0.06569268 0.007494608 -0.03060841 -0.009352142
0.03614493 -0.02506399 -0.01635835 -0.021353675 -0.08722543 -0.09962911 -0.037444197 -0.11862186
-0.07652854 -0.075350106 -0.030139286 -0.13269925 0.005077349 0.014717725 -0.028490376 -0.033181295
00000000: 5590 083d f191 853d a386 babd 08de 4d3d
00000010: 1eb7 953e 854f eb3d 92fa 8c3d d6b9 d13e
00000020: 575d af3e af98 53bb f574 14bd 3103 cabd
00000030: f3c2 063c 4f95 723c bc44 bdbc 9b4d 943d
00000040: 3ea8 bf3d 9e4b 793d ffd6 8e3b e1c8 6abd
00000050: 77f1 fabd 36d2 78bd f005 f1bc 4042 95bd
00000060: c52b c1bc e653 1dbd 37d4 10bd a029 7bbd
00000070: 46c9 9cbd ecc0 dabd e81e bcbd 25a1 e0bc
00000080: c621 b1bd 6c0d 19bd a88d 06bd e5c1 3cbd
00000090: 2594 a6bd c2d8 663c 1386 87bd 996a 063c
000000a0: 79a8 b2bd 2cf8 4abd 4ec1 80bb 7c59 81bd
000000b0: 6f81 803c 8579 c1bc 9781 47bd 4630 623c
000000c0: 1bc2 493d 0dd5 953d 93a7 ca3c 1f0d ee3d
000000d0: 5b28 253d 3070 b73d c572 0c3e a514 2e3d
000000e0: 5843 aa3d 5f9d 1e3e 132f 4e3d cb82 843d
000000f0: 593d 923d 4694 9d3d 9258 6abd 938a 6abd
00000100: 0b79 97bd 9c8d 50bd 4fb1 ffbc 39ab f2bb
00000110: c144 96bd d998 89bd e7e7 1dbd dc2a f5bd
00000120: 2eda b43b e76a d1bd 28a1 66bd bf5e 4fbd
00000130: 09c8 0fbd bbd2 0dbc 49a5 44bd eb42 d1bd
00000140: 48cb 4bbc c13b c3bc a9b0 30be 52ca 03bf
00000150: afbb 123e 38bf 01be d342 f33d 930e 22bf
00000160: 3b44 ccbe 42b4 50bf b38b 77ba dc15 fcbc
00000170: feb8 a7bd ae03 e93c 14a1 95bd 54cb d7bc
00000180: 76b7 65bd 27c4 33bd 1755 29bd df2c 853c
00000190: 0a0a b1bd 7037 8abc ed54 24bd fe65 acbd
000001a0: 8e4f dcbd 8f52 9abd 5bc3 383c 74cd 7abd
000001b0: 7b3f 1cbd 03f7 1dbd 4763 98bc b8d3 f73b
000001c0: 88e0 97bb c968 c7bd 9926 4dbd a8ee a9bd
000001d0: bef4 a6bd c421 febc 62d8 d13b 6b95 c3bd
000001e0: f1f1 1abc 780f a1bd 1773 6fbd eed5 583b
000001f0: 51f4 73bd fdd9 22bd 70b0 c1bd af55 26bc
00000200: 8baf 86bd dd6a c8bd d9e3 37bd 7000 cbbd
00000210: e74c c7bd 0f5c 5fbd 8fe7 a4bb f993 3fbd
00000220: ec75 ab39 13bb 0b3d 8013 e93b 7d93 77bd
00000230: 634e cebc 158e 4ebd 9d07 9ebd 8a62 9bbc
00000240: 3fc8 c2bc b5d3 173d e1b5 33bd f44a 38bd
00000250: 8223 4bbd 3d0b 8bbc 91c7 c6bd eb52 78bd
00000260: f1f0 57bd d93a 2bbc 49e8 d1bd de89 683b
00000270: 3f6f cbbc 954e b9bd 7938 80bd 827b de3b
00000280: 480a bfbd 1f6d 87bd a910 0ebd 5c2b eebd
00000290: 7847 4bbd ebb9 4cbd d7a7 4dbd e9bc 19be
000002a0: f643 ef3c bec4 c0bd bc68 0bbd cf10 d4bd
000002b0: dd4b cdbd edd2 55bc 1e01 2abd 4d78 38bd
000002c0: 0864 a9bd 3b32 95bd e0e2 87bd 073f ddbd
000002d0: 26c7 c3ba 883d 9dbb 145e 0cbd e063 afbc
000002e0: 3d1f 0e3d 9cc5 023d 9341 29be dbc1 06be
000002f0: 2c4f 41bd 0641 afbd 349e 18bd b8e3 eebc
00000300: 7026 bdba c982 0cbd dfdd 4b3d ad7b 82bd
00000310: 648d d3ba 7b7e 813d 3ea7 6f3b 706b b4bd
00000320: f7b6 1bbd 5e84 41bd 6959 a7bd 7cdf 8cbd
00000330: 23bc 24bd 812d cabd 1e18 2cbd 5449 a1bc
00000340: 0b6d 9abd b629 5abb bee0 47bd 45b3 c6bc
00000350: 7784 073c 38b3 7abd 4bc1 8abc 82f5 83bd
00000360: eadc 973d 5e22 193e 753c e33e 9a35 643d
00000370: 4284 633e b146 e13e f96d e73d bd44 253e
00000380: d33f 6b3e 5e32 77bd d2dc bbbd 8a8f 7fbc
00000390: eeca febc 1497 86bd 78b8 6fbd 6aee a8bc
000003a0: 7079 4dbd f1a5 7b3b 4a2a 013c 1197 a1bd
000003b0: e289 86bd 5495 f53b 7dbe fabc ba39 19bc
000003c0: b50c 143d ff52 cdbc f201 86bc e7ed aebc
000003d0: 3fa3 b2bd 590a ccbd 165f 19bd 05f0 f2bd
000003e0: ffba 9cbd 2851 9abd aae6 f6bc 50e2 07be
000003f0: e45f a63b 9d22 713c a664 e9bc 1ce9 07bd

layers.2.bias f4 [32]
-0.04405482 -0.07842445 -0.06737517 -0.07926782 -0.049583737 -0.13470519 -0.104431026 -0.02545168
-0.10096934 -0.07417696 -0.15861873 -0.0040095495 -0.06539936 -0.12807277 -0.01852805 0.047072724
-0.04280446 -0.05494018 -0.11644543 -0.22113846 -0.05368798 -0.022215424 -0.024401102 -0.10599276
-0.059595745 -0.12781344 -0.10061909 -0.1709728 0.029229844 -0.05521436 -0.12640831 -0.08238258
00000000: d472 34bd ff9c a0bd fefb 89bd 2b57 a2bd
00000010: 5118 4bbd 28f0 09be efdf d5bd 0b80 d0bc
00000020: 03c9 cebd 17ea 97bd f36c 22be 8a62 83bb
00000030: 1af0 85bd 8225 03be 23c8 97bc 54cf 403d
00000040: bb53 2fbd f408 61bd f17a eebd 1f72 62be
00000050: ede7 5bbd 1ffd b5bc d2e4 c7bc bb12 d9bd
00000060: ab1a 74bd 87e1 02be 6211 cebd 7e13 2fbe
00000070: 6d73 ef3c 7428 62bd 2e71 01be 33b8 a8bd

layers.4.weight f4 [32, 32, 3, 3]
-0.028415676 -0.06754528 -0.07061669 -0.0077050086 -0.06216024 -0.057485245 -0.0034587542 -0.043863747
-0.008225715 0.026380049 0.046530217 0.06654491 -0.024237603 -0.0017119679 0.08376567 0.033162482
0.019168671 0.074565224 -0.026779113 -0.07294795 -0.1162018 -0.018619362 -0.034508985 -0.10652506
0.020235246 0.015231145 -0.22334258 0.050523497 -0.02024711 -0.061669182 0.09237137 0.037458833
-0.033019856 0.012502849 -0.025046546 -0.0284512 -0.08262239 -0.14107771 -0.071800515 -0.03603052
-0.0590956 -0.041275524 0.023930404 0.12304852 0.041220438 -0.07866981 -0.03830353 -0.049999606
-0.04457384 0.0069413846 0.011414274 0.010005158 0.03461706 -0.015790364 0.058532704 0.07743216
0.09549173 0.084988125 0.1525514 0.14285928 0.058937874 0.10891243 0.10880314 -0.0027859062
-0.062342547 0.03270024 -0.04166546 -0.0013089771 -0.05465409 -0.0014207797 -0.044078723 -0.056686886
-0.15163139 -0.15420689 -0.11481482 -0.052439798 -0.29641363 -0.13639525 -0.05067019 -0.24618725
-0.13004014 -0.08026537 -0.006330411 -0.06155588 -0.012406587 -0.04080312 0.0007428153 -0.068910345
0.023500837 0.015716156 -0.025958018 -0.035546474 0.04698912 -0.038276494 0.023751816 -0.02256003
-0.04064019 0.023745831 -0.015177901 -0.059041537 -0.004743815 0.0029342382 0.02788906 0.03605905
-0.0029669327 -0.037906267 -0.032527614 0.020566147 -0.08202812 0.009596197 -0.00082249887 -0.010054349
-0.005658787 -0.0729389 -0.0018988091 -0.017134476 -0.019650582 -0.050382826 0.017548341 -0.035996415
-0.02398312 -0.07677427 0.017471706 -0.07519916 0.013808673 0.0019355089 0.046192463 -0.020329377
0.008496539 0.033256833 -0.007196146 0.016287424 0.025076479 0.01925359 0.07758079 -0.09414284
-0.16042833 -0.041336615 -0.054889593 -0.033692006 -0.033564683 -0.04629729 -0.089793704 -0.004015997
0.013065303 -0.048772674 -0.06592352 -0.06528187 -0.027540477 -0.016813433 -0.06490947 -0.016531838
-0.035203755 0.011223352 -0.055126272 -0.055337515 -0.02530961 -0.026016477 0.016129702 0.008601558
-0.06648448 0.026682056 0.009713118 0.008338729 -0.016125815 -0.026952907 -0.030889759 -0.031212075
-0.086797364 -0.06466192 0.024024421 0.89725226 0.7751997 -0.43749678 -0.31641257 -0.04277721
-0.23892345 -0.26136652 -0.1424074 -0.16786651 -0.03634317 -0.031011926 -0.044907372 -0.047743876
-0.05002185 -0.03568105 -0.08016257 0.017153272 -0.056342527 0.05196522 -0.059196774 -0.0045314236
0.12038561 -0.019106276 0.0049454137 0.010595275 0.043350343 0.042982735 -0.094580986 -0.07010812
-0.0687184 -0.054201897 -0.123459525 0.043718368 -0.16838472 -0.06763486 0.038140934 -0.007010962
-0.04597086 0.035053056 -0.017837327 0.004067298 0.0037567858 -0.020531196 -0.018668186 -0.04623624
0.035849895 0.073348865 0.08697241 -0.025703043 0.050247718 -0.01543442 0.052029137 0.062974595
-0.025414316 -0.07718298 -0.08603239 -0.03584367 -0.0074801636 -0.064495936 -0.025533848 -0.054664694
0.018395552 -0.09592651 -0.064997464 -0.029517986 -0.06763395 0.018462565 -0.0680441 -0.035004403
-0.042438157 0.0023124414 -0.036916822 0.047565017 -0.052286055 -0.020169977 -0.029617816 -0.06155971
-0.061954945 0.026726568 0.05819408 -0.0033352284 -0.117052935 -0.11968978 -0.0011694774 -0.14614516
00000000: fec7 e8bc 2e55 8abd 7c9f 90bd 4c7a fcbb
00000010: bc9b 7ebd a675 6bbd 44ac 62bb 79aa 33bd
00000020: 26c5 06bc f91a d83c 7896 3e3d b348 883d
00000030: f08d c6bc 1c64 e0ba 568d ab3d 62d5 073d
00000040: 9e07 9d3c a7b5 983d df5f dbbc bc65 95bd
00000050: 36fb edbd a287 98bc 4b59 0dbd d029 dabd
00000060: 63c4 a53c 0d8c 793c ebb3 64be baf1 4e3d
00000070: 44dd a5bc d398 7cbd 332d bd3d 6f6e 193d
00000080: d43f 07bd c0d8 4c3c 6a2e cdbc 7e12 e9bc
00000090: ed35 a9bd ad76 10be 260c 93bd bd94 13bd
000000a0: 3a0e 72bd 8610 29bd b209 c43c dd00 fc3d
000000b0: c3d6 283d a31d a1bd 2ae4 1cbd 63cc 4cbd
000000c0: 0f93 36bd 8e74 e33b ef02 3b3c adec 233c
000000d0: 9eca 0d3d cb5a 81bc fdbf 6f3d c194 9e3d
000000e0: 2b91 c33d 410e ae3d 6f36 1c3e b449 123e
000000f0: d768 713d 7b0d df3d 2ed4 de3d c093 36bb
00000100: e65a 7fbd b0f0 053d 67a9 2abd fc91 abba
00000110: f8dc 5fbd 7539 baba e48b 34bd 8230 68bd
00000120: 4245 1bbe 69e8 1dbe 0824 ebbd 1dcb 56bd
00000130: 87c3 97be 32ab 0bbe 8c8b 4fbd 8318 7cbe
00000140: 3e29 05be 2c62 a4bd 566f cfbb 0522 7cbd
00000150: ff44 4bbc 2c21 27bd 7eb9 423a de20 8dbd
00000160: d484 c03c 2bbf 803c e9a5 d4bc 2e99 11bd
00000170: aa77 403d d0c7 1cbd 2b93 c23c d0cf b8bc
00000180: 5476 26bd 9e86 c23c bbac 78bc 8ad5 71bd
00000190: 0172 9bbb 594c 403b 9977 e43c a8b2 133d
000001a0: df70 42bb 9a43 1bbd ad3b 05bd 567a a83c
000001b0: 5cfe a7bd 5e39 1d3c f79c 57ba ffba 24bc
000001c0: 596d b9bb fd60 95bd 76e1 f8ba 9a5d 8cbc
000001d0: 42fa a0bc 395e 4ebd 8ac1 8f3c fa70 13bd
000001e0: 4078 c4bc d43b 9dbd d320 8f3c 0402 9abd
000001f0: c63d 623c e7b0 fd3a 4f34 3d3d cb89 a6bc
00000200: 1135 0b3c 5138 083d a6cd ebbb 346d 853c
00000210: 306d cd3c b4b9 9d3c ade2 9e3d f6cd c0bd
00000220: 5347 24be 9550 29bd e9d3 60bd a100 0abd
00000230: 1f7b 09bd 3aa2 3dbd c3e5 b7bd a098 83bb
00000240: da0f 563c dbc5 47bd e902 87bd 80b2 85bd
00000250: 919c e1bc 53bc 89bc 42ef 84bd c76d 87bc
00000260: d031 10bd 26e2 373c 16cc 61bd 97a9 62bd
00000270: 1956 cfbc 8220 d5bc 7022 843c 8ded 0c3c
00000280: 0429 88bd 5494 da3c c523 1f3c 2a9f 083c
00000290: 491a 84bc 58cc dcbc 850c fdbc 77b0 ffbc
000002a0: d1c2 b1bd 786d 84bd ddce c43c 53b2 653f
000002b0: 7d73 463f 94ff dfbe d400 a2be 2837 2fbd
000002c0: 59a8 74be d5d1 85be 3fd3 11be 33e5 2bbe
000002d0: 93dc 14bd b90c febc cbf0 37bd 158f 43bd
000002e0: b6e3 4cbd 4b26 12bd 462c a4bd 0585 8c3c
000002f0: 6cc7 66bd 7cd9 543d 5178 72bd 567c 94bb
00000300: bb8c f63d c484 9cbc 230d a23b ce97 2d3c
00000310: 2190 313d aa0e 303d adb3 c1bd d994 8fbd
00000320: 3cbc 8cbd cf02 5ebd 59d8 fcbd 0812 333d
00000330: 0b6d 2cbe 2584 8abd ab39 1c3d 36bc e5bb
00000340: f14b 3cbd cb93 0f3d 961f 92bc f846 853b
00000350: 6834 763b 0a31 a8bc 06ee 98bc 3662 3dbd
00000360: 57d7 123d ee37 963d 971e b23d 308f d2bc
00000370: 8dd0 4d3d a6e0 7cbc 811c 553d d3f8 803d
00000380: af31 d0bc 1c12 9ebd c031 b0bd d0d0 12bd
00000390: 291c f5bb 7216 84bd 5c2c d1bc 16e8 5fbd
000003a0: 45b2 963c 1e75 c4bd 641d 85bd b4cf f1bc
000003b0: ab83 8abd ce3e 973c b55a 8bbd c760 0fbd
000003c0: a2d3 2dbd 548c 173b 1836 17bd 89d3 423d
000003d0: e729 56bd 823b a5bc 10a1 f2bc 0926 7cbd
000003e0: 78c4 7dbd adf1 da3c ea5c 6e3d d993 5abb
000003f0: 73b9 efbd ea1f f5bd 2649 99ba 14a7 15be

layers.4.bias f4 [32]
-0.0009325002 -0.07504637 -0.047124304 -0.0974818 -0.094644666 -0.014008915 -0.043035924 -0.06066228
-0.015655586 -0.0012947413 -0.0659932 0.013156916 0.1248126 -0.042873614 -0.06955138 -0.028461268
-0.08164217 -0.101560764 -0.09626114 -0.023104584 -0.0685521 0.071509 -0.038065836 -0.029562883
-0.02600641 -0.073901646 -0.05894692 -0.14835683 -0.015470827 -0.026926596 -0.021641133 -0.114506766
00000000: 0773 74ba e9b1 99bd 6a05 41bd 8aa4 c7bd
00000010: 10d5 c1bd a685 65bc 7046 30bd 0379 78bd
00000020: 2540 80bc 4fb4 a9ba 7127 87bd 1b90 573c
00000030: c09d ff3d 3e9c 2fbd f470 8ebd 9b27 e9bc
00000040: 0334 a7bd 17ff cfbd 9024 c5bd d345 bdbc
00000050: 0b65 8cbd 5073 923d ecea 1bbd dc2d f2bc
00000060: 650b d5bc bf59 97bd 5372 71bd daea 17be
00000070: 5a79 7dbc 2a95 dcbc bf48 b1bc 8682 eabd

layers.6.weight f4 [32, 32, 3, 3]
0.08862175 0.038386457 0.01729785 0.085957065 0.06963258 0.029127965 0.07313817 0.09749717
0.016784668 -0.048904374 0.0001522821 0.0037053144 -0.07167081 -0.06979557 -0.078425795 -0.09285681
-0.07650406 -0.009008921 -0.033038672 -0.0974936 -0.07306223 -0.1074056 -0.08353313 -0.03939917
-0.034155592 -0.08388982 -0.122893386 0.07084083 0.043791566 0.085908525 0.12819631 0.07579071
0.06227576 0.06723027 0.07354849 0.08829879 -0.04709093 -0.0999127 0.0077167423 -0.080551066
0.011369671 -0.050090138 -0.049747687 -0.01733092 -0.072193734 -0.04551992 -0.06799853 -0.08719382
-0.009163628 -0.0033294032 -0.019500697 0.011613251 -0.016357647 0.0037577383 0.042358175 0.09895807
0.06399723 0.04254212 0.084242806 -0.009444779 0.039225996 0.009667398 0.09058501 -0.05499979
-0.027269743 -0.0061804457 -0.017794328 -0.071933165 -0.04704888 -0.012214077 -0.074077465 -0.044007614
0.06789764 0.12651832 0.15538906 0.11628357 0.122836955 0.16420436 0.09468617 0.071352094
0.1399082 -0.088968344 -0.018461173 -0.007933476 -0.046988174 -0.104226045 -0.01977569 -0.009208006
-0.052976478 -0.006949767 0.09145529 0.08105339 0.121712975 0.041624904 0.07915037 0.024804866
0.122403145 0.0897815 0.12284631 0.062111292 0.161706 0.14842734 0.16030258 0.08419231
0.043521523 0.09923503 0.15747839 0.15013571 -0.16424914 -0.24589191 -0.3016852 -0.14872506
-0.21174416 -0.24882232 -0.14405736 -0.23248766 -0.22607139 -0.013778124 -0.09374112 0.008944714
-0.025318807 -0.018569186 -0.01780056 -0.005843553 0.005250486 -0.072372526 -0.030958533 -0.011051283
-0.10483533 -0.012317328 -0.103104524 -0.085184954 -0.082030885 -0.10642879 -0.10867139 -0.011250705
-0.096899234 -0.07465896 -0.10118926 -0.06937842 -0.046297092 -0.026231915 -0.0764724 -0.035667736
-0.017722305 0.001357712 -0.057785317 -0.08638816 -0.01026533 -0.06760823 -0.10280106 -0.068930544
-0.055573843 -0.03369993 0.0014055006 -0.004646305 -0.06968624 0.0069055893 -0.01725071 -0.027925698
-0.08218176 -0.04558317 0.03474958 0.022347042 0.069173254 0.03255313 -0.00830997 0.09573325
0.07063086 0.0978362 0.10660526 -0.050437775 -0.052605763 -0.065639086 -0.037343055 -0.061801977
0.0016752393 -0.066130355 -0.10010701 0.012401413 0.12991525 0.056728322 0.14668076 0.042066194
0.06855811 0.06985875 0.10556592 0.11577844 0.07676034 0.07882999 0.068875246 0.14777833
0.12613417 0.10403975 0.10464984 0.10273502 0.06754904 0.056473743 0.0069474783 -0.069153905
-0.08243311 -0.052021682 -0.02800422 -0.09651115 -0.03012641 -0.04904391 -0.073585875 -0.038715813
-0.04024195 -0.102941625 -0.018420376 -0.02368501 -0.08002502 -0.027538951 -0.077234946 -0.0023481527
-0.07214699 -0.024751842 -0.026825389 -0.049239833 -0.07821183 -0.017896367 -0.030597882 -0.07326091
-0.054069325 0.100956574 0.02688175 0.08536989 0.089207985 0.019007202 0.08553381 0.03097457
0.024467213 0.12948552 0.09980063 0.11178359 0.1222236 0.038394332 0.045253497 0.070696734
0.09384357 0.07671356 0.06578591 0.010281594 -0.07726036 -0.021111965 -0.024626376 -0.09647782
-0.034060486 -0.00827853 -0.07971835 -0.10771679 0.0009965834 0.015252972 -0.0056022736 -0.026168311
00000000: 527f b53d 1e3b 1d3d 39b4 8d3c 420a b03d
00000010: 879b 8e3d c59d ee3c 77c9 953d 99ac c73d
00000020: 0080 893c f44f 48bd eaad 1f39 dcd4 723b
00000030: 25c8 92bd fbf0 8ebd b49d a0bd b62b bebd
00000040: 29ae 9cbd 279a 13bc 8f53 07bd b9aa c7bd
00000050: a7a1 95bd 78f7 dbbd 6b13 abbd 0661 21bd
00000060: bce6 0bbd 6dce abbd 87af fbbd ff14 913d
00000070: c95e 333d cff0 af3d e545 033e 2938 9b3d
00000080: de14 7f3d 06b0 893d 97a0 963d ffd5 b43d
00000090: 6be2 40bd 089f ccbd badc fc3b f5f7 a4bd
000000a0: db47 3a3c 512b 4dbd 3bc4 4bbd 93f9 8dbc
000000b0: 4fda 93bd 1873 3abd d042 8bbd ac92 b2bd
000000c0: 0b23 16bc 1e32 5abb edbf 9fbc 8145 3e3c
000000d0: 7900 86bc 6344 763b c47f 2d3d 87aa ca3d
000000e0: fb10 833d a540 2e3d 7e87 ac3d 46be 1abc
000000f0: 70ab 203d 0264 1e3c a284 b93d 7647 61bd
00000100: cc64 dfbc 5685 cabb 69c5 91bc b251 93bd
00000110: 54b6 40bd 8d1d 48bc edb5 97bd 5441 34bd
00000120: eb0d 8b3d 058e 013e 4f1e 1f3e 1526 ee3d
00000130: f191 fb3d 3025 283e d3ea c13d 0c21 923d
00000140: 1844 0f3e 0935 b6bd e33b 97bc 69fb 01bc
00000150: ac76 40bd 7774 d5bd a100 a2bc 2ddd 16bc
00000160: ddfd 58bd dfba e3bb e94c bb3d 52ff a53d
00000170: a744 f93d e07e 2a3d 9719 a23d 9333 cb3c
00000180: 80ae fa3d 5ddf b73d d996 fb3d 6968 7e3d
00000190: 4296 253e 56fd 173e 5c26 243e 056d ac3d
000001a0: a043 323d bc3b cb3d 0442 213e 2dbd 193e
000001b0: ed30 28be 17cb 7bbe 7c76 9abe 624b 18be
000001c0: 76d3 58be 47cb 7ebe c683 13be 3f11 6ebe
000001d0: 427f 67be a4bd 61bc 58fb bfbd da8c 123c
000001e0: 6369 cfbc 681e 98bc 7bd2 91bc 477b bfbb
000001f0: 450c ac3b 0c38 94bd c09c fdbc 7110 35bc
00000200: e8b3 d6bd 9ece 49bc 7728 d3bd 7375 aebd
00000210: cfff a7bd 56f7 d9bd 1b8f debd e154 38bc
00000220: 1b73 c6bd cce6 98bd 513c cfbd 4616 8ebd
00000230: 05a2 3dbd 50e4 d6bc 909d 9cbd 5518 12bd
00000240: 5e2e 91bc 41f5 b13a 4cb0 6cbd 47ec b0bd
00000250: ea2f 28bc 2f76 8abd 5d89 d2bd 752b 8dbd
00000260: 66a1 63bd f008 0abd c638 b83a 0840 98bb
00000270: a9b7 8ebd 4848 e23b 5c51 8dbc 6fc4 e4bc
00000280: e94e a8bd 6bb5 3abd 9355 0e3d 2511 b73c
00000290: b5aa 8d3d 6e56 053d 8a26 08bc cb0f c43d
000002a0: eaa6 903d 585e c83d dc53 da3d d797 4ebd
000002b0: 2479 57bd c96d 86bd 08f5 18bd 1224 7dbd
000002c0: b493 db3a 5a6f 87bd e704 cdbd 4c2f 4b3c
000002d0: 8108 053e f55b 683d 7b33 163e 9a4d 2c3d
000002e0: 3268 8c3d 1b12 8f3d f232 d83d 3f1d ed3d
000002f0: 8634 9d3d 9e71 a13d 770e 8d3d 3453 173e
00000300: 5129 013e cb12 d53d a852 d63d bd66 d23d
00000310: 2757 8a3d 0351 673d aca7 e33b 90a0 8dbd
00000320: b1d2 a8bd b014 55bd 1b69 e5bc a3a7 c5bd
00000330: a9cb f6bc 44e2 48bd 31b4 96bd 7994 1ebd
00000340: bed4 24bd 0fd3 d2bd 54e6 96bc 1107 c2bc
00000350: 28e4 a3bd 5e99 e1bc 5b2d 9ebd 77e3 19bb
00000360: cdc1 93bd 60c4 cabc ebc0 dbbc b5af 49bd
00000370: 862d a0bd 679b 92bc 69a8 fabc d109 96bd
00000380: cc77 5dbd 52c2 ce3d 1e37 dc3c 69d6 ae3d
00000390: adb2 b63d feb4 9b3c 5a2c af3d 62be fd3c
000003a0: 776f c83c da97 043e 4664 cc3d cbee e43d
000003b0: 5e50 fa3d 6043 1d3d bb5b 393d 73c9 903d
000003c0: 0f31 c03d 001c 9d3d c3ba 863d 2174 283c
000003d0: ae3a 9ebd 00f3 acbc 41bd c9bc 2a96 c5bd
000003e0: 0283 0bbd aca2 07bc 6043 a3bd 9f9a dcbd
000003f0: ca9f 823a 9ae7 793c 4793 b7bb ed5e d6bc

layers.6.bias f4 [32]
0.021861635 -0.03728288 -0.047305133 -0.062193215 -0.10816814 -0.054936867 -0.12738441 -0.079170845
0.18921766 -0.03508962 -0.023294544 -0.07793027 -0.08705837 0.019443156 0.036144543 0.03706819
0.052703463 -0.13418375 0.04493221 0.016807044 -0.05812853 -0.021004314 0.024349136 -0.12714407
-0.08822891 -0.04213575 0.023474565 -0.1772267 0.031196248 -0.03571646 -0.08735545 -0.054002207
00000000: 2c17 b33c efb5 18bd 07c3 41bd 50be 7ebd
00000010: 4287 ddbd 7b05 61bd 0f71 02be 5324 a2bd
00000020: 46c2 413e 22ba 0fbd 33d4 bebc e899 9fbd
00000030: a94b b2bd 4147 9f3c 4d0c 143d d0d4 173d
00000040: 96df 573d 7767 09be d60a 383d edae 893c
00000050: 2e18 6ebd 3d11 acbc d777 c73c 0e32 02be
00000060: 5cb1 b4bd 8996 2cbd bb4d c03c eb7a 35be
00000070: 468f ff3c 6c4b 12bd 6ae7 b2bd 6b31 5dbd

layers.8.weight f4 [32, 32, 3, 3]
-0.017434156 -0.023848308 -0.018733753 -0.039599806 0.00032382537 0.005752273 -0.10261626 -0.10036463
-0.046018504 -0.0823637 -0.08874352 0.050115775 0.03488909 -0.12225203 0.015076169 0.027563399
-0.07275546 -0.024966625 -0.05019405 -0.10789843 -0.036926564 -0.09740573 -0.13014014 0.0087787695
-0.083605334 -0.11973514 -0.07113205 0.119847156 0.11241105 0.047326844 0.021244766 0.11798428
0.081777096 0.115099415 0.03124257 0.07050371 -0.03989643 -0.02477828 -0.058926012 -0.009948096
-0.03849297 -0.05236546 -0.04663814 -0.075541645 -0.03955357 -0.056809414 -0.018861614 -0.039203547
-0.024867626 0.00057405914 -0.04068553 -0.067288265 -0.009438199 -0.08825138 0.036945004 0.03018751
0.072690755 0.056138933 0.07198316 0.07168486 0.050972857 0.02822139 0.1282268 0.071761884
0.026183406 0.114407875 0.04886791 0.03770689 0.061783023 0.082898624 0.10447757 0.023484692
0.019964164 -0.0762339 -0.04492271 0.017034579 -0.11438435 -0.04960049 -0.020609196 -0.16283055
0.0065394687 -0.06016122 -0.083794184 -0.078406855 -0.1183486 -0.08335377 -0.08936235 -0.043282796
-0.09936592 -0.01725806 -0.011253434 -0.0277355 -0.02348157 -0.014055986 -0.042790826 -0.075145975
-0.07564772 -0.048310958 -0.08101879 -0.0114841545 -0.02959142 0.029632205 -0.041387286 -0.002993247
-0.043587994 -0.028380549 -0.04009475 -0.019060653 0.0015809638 0.008042989 0.022519173 0.040771645
0.065898746 -0.0010657798 -0.007034511 0.012918806 -0.0061500142 -0.033674333 0.010243787 -0.07934464
-0.08133014 -0.0001539864 -0.003039599 -0.052599337 -0.059706036 0.0019261382 -0.099542886 -0.011605283
-0.046850756 -0.009582758 -0.058531594 -0.08301729 -0.07997268 -0.10751875 -0.11789978 0.008151937
0.011872421 -0.055274796 -0.06632593 -0.0033104403 -0.0097668115 -0.06190448 -0.0017655303 -0.067859784
-0.06333438 -0.015185502 -0.09160579 -0.053011153 -0.036537234 -0.08397031 -0.11311034 -0.04399935
-0.05529556 0.04988807 0.064255014 0.004640045 -0.0020486927 0.074799165 0.027619254 -0.0059693083
-0.06414257 -0.2579919 -0.0744259 -0.06489387 -0.026297102 -0.0913185 -0.09759013 -0.019876942
-0.020054316 -0.014691284 -0.0977005 -0.035072535 -0.10353328 0.0042969505 -0.024944011 0.0034686576
-0.08233952 -0.021217732 -0.04765223 -0.051830217 -0.03142393 -0.05323463 -0.021429414 -0.010117889
-0.009028347 -0.08961157 -0.019184072 -0.06227746 -0.04225097 -0.12206266 -0.0945566 -0.025420683
-0.08452002 -0.07312674 -0.041631985 -0.120748945 -0.05871985 -0.12255088 -0.044193856 -0.025600916
-0.019202467 -0.011802901 -0.01749969 -0.010908223 -0.074925676 -0.09450691 0.008322177 0.08189986
0.09563581 0.06566361 0.055412356 0.05866351 0.04785162 0.021188863 0.10211767 0.10957836
-0.008041478 -0.088006295 -0.0021422533 -0.0865262 -0.09022252 -0.075014934 -0.11385702 -0.041548293
-0.008776345 0.02799331 0.03352459 0.114122 0.10099203 0.027679956 0.049009606 0.018642996
0.043634918 0.0882458 -0.004092243 -0.016526362 -0.053645007 -0.03830006 -0.01331177 0.007987197
0.013148116 -0.044825528 -0.047942135 0.019641476 -0.16625682 0.012391064 0.022256467 -0.061495885
0.14450492 0.02181663 0.053107567 -0.030441243 -0.043816905 -0.018252734 -0.0051157307 -0.06975995
00000000: 13d2 8ebc 875d c3bc 8777 99bc 6833 22bd
00000010: 1bc7 a939 907d bc3b 7928 d2bd f98b cdbd
00000020: e67d 3cbd 4dae a8bd 2abf b5bd 3346 4d3d
00000030: dde7 0e3d 465f fabd 0902 773c a3cc e13c
00000040: d100 95bd cf86 ccbc 4798 4dbd daf9 dcbd
00000050: 4f40 17bd a87c c7bd 7543 05be d4d4 0f3c
00000060: 4639 abbd b237 f5bd aead 91bd 6d72 f53d
00000070: c437 e63d cbd9 413d 8109 ae3c bea1 f13d
00000080: c07a a73d 3eb9 eb3d 6bf0 ff3c 4064 903d
00000090: 706a 23bd d2fb cabc 675c 71bd 57fd 22bc
000000a0: ceaa 1dbd 2a7d 56bd a207 3fbd 94b5 9abd
000000b0: ed02 22bd fdb0 68bd ac83 9abc e693 20bd
000000c0: 31b7 cbbc 757c 163a dfa5 26bd 6ece 89bd
000000d0: ada2 1abc 24bd b4bd a553 173d cc4b f73c
000000e0: e4de 943d f0f1 653d e86b 933d 83cf 923d
000000f0: eac8 503d 8b30 e73c e34d 033e e5f7 923d
00000100: 957e d63c ad4e ea3d b829 483d 8a72 1a3d
00000110: 3210 7d3d c1c6 a93d 56f8 d53d f862 c03c
00000120: e38b a33c 8520 9cbd e000 38bd 1a8c 8b3c
00000130: 5842 eabd e229 4bbd 9ed4 a8bc 0dbd 26be
00000140: 0a49 d63b 9d6b 76bd 499c abbd c693 a0bd
00000150: c060 f2bd 62b5 aabd 9c03 b7bd 4d49 31bd
00000160: 5c80 cbbd c660 8dbc 5360 38bc 8f35 e3bc
00000170: 6c5c c0bc 144b 66bc 6f45 2fbd 22e6 99bd
00000180: 31ed 9abd b6e1 45bd 2eed a5bd 0928 3cbc
00000190: b569 f2bc 3dbf f23c b785 29bd 5a2a 44bb
000001a0: 5389 32bd 537e e8bc 643a 24bd 1625 9cbc
000001b0: 5838 cf3a bec6 033c 217a b83c 2b00 273d
000001c0: ecf5 863d a3b1 8bba c181 e6bb 66a9 533c
000001d0: 0f86 c9bb 19ee 09bd 8fd5 273c 717f a2bd
000001e0: 6b90 a6bd 6977 21b9 0234 47bb 6772 57bd
000001f0: 518e 74bd 7976 fc3a 24dd cbbd 1624 3ebc
00000200: 94e6 3fbd 0001 1dbc d3be 6fbd f804 aabd
00000210: b7c8 a3bd ca32 dcbd 7175 f1bd b48f 053c
00000220: 8b84 423c d367 62bd e4d5 87bd f9f3 58bb
00000230: fa04 20bc 8d8f 7dbd 5e69 e7ba 12fa 8abd
00000240: 75b5 81bd 9dcc 78bc d19b bbbd 3922 59bd
00000250: 11a8 15bd a0f8 abbd 65a6 e7bd aa38 34bd
00000260: 997d 62bd 6f57 4c3d 2298 833d 850b 983b
00000270: 5c43 06bb 4e30 993d c641 e23c 309a c3bb
00000280: 2e5d 83bd 8417 84be 9b6c 98bd 14e7 84bd
00000290: 056d d7bc 3205 bbbd 56dd c7bd f8d4 a2bc
000002a0: f348 a4bc b6b3 70bc 3317 c8bd 38a8 0fbd
000002b0: 4209 d4bd 6fcd 8c3b 6257 ccbc 6b52 633b
000002c0: 9fa1 a8bd cfd0 adbc fc2e 43bd ec4b 54bd
000002d0: 61b6 00bd 8e0c 5abd bd8c afbc 81c5 25bc
000002e0: a2eb 13bc 4586 b7bd ea27 9dbc a616 7fbd
000002f0: 5a0f 2dbd fdfb f9bd e4a6 c1bd 093f d0bc
00000300: d518 adbd 79c3 95bd 4d86 2abd 394b f7bd
00000310: 3a84 70bd f5fb fabd 9e04 35bd 03b9 d1bc
00000320: 7e4e 9dbc f460 41bc 835b 8fbc 67b8 32bc
00000330: a272 99bd d78c c1bd be59 083c 1dbb a73d
00000340: b5dc c33d a57a 863d 11f8 623d 2649 703d
00000350: 0f00 443d 4494 ad3c 1223 d13d 9f6a e03d
00000360: 67c0 03bc a53c b4bd 0c65 0cbb a634 b1bd
00000370: 96c6 b8bd 6ea1 99bd df2d e9bd 8b2e 2abd
00000380: a9ca 0fbc 3a52 e53c 1551 093d ccb8 e93d
00000390: e9d4 ce3d 13c1 e23c 4cbe 483d 32b9 983c
000003a0: 87ba 323d 37ba b43d 3918 86bb 4b62 87bc
000003b0: deba 5bbd 86e0 1cbd 9c19 5abc bbdc 023c
000003c0: 326b 573c f99a 37bd f95e 44bd 29e7 a03c
000003d0: 3a3f 2abe e403 4b3c 3253 b63c 1ce3 7bbd
000003e0: 19f9 133e cab8 b23c 5287 593d ea5f f9bc
000003f0: 5b79 33bd c286 95bc dca1 a7bb 4ede 8ebd

layers.8.bias f4 [32]
-0.07645592 0.0011017444 -0.10337865 0.0036383348 -0.16357897 -0.007839323 -0.23835267 -0.04744607
-0.066864304 -0.51971036 0.0014713219 0.0042665973 -0.042492695 -0.114840455 0.01532993 -0.10961249
-0.0039028625 -0.04354109 -0.00351296 -0.5273222 -0.07154808 -0.094242044 -0.10823459 -0.07658192
-0.101967454 -0.06268009 -0.13155343 -0.06620155 0.00986689 -0.09350785 -0.05456263 -0.4717909
00000000: ec94 9cbd 6868 903a 30b8 d3bd 2171 6e3b
00000010: 3f81 27be 8170 00bc b912 74be cf56 42bd
00000020: 27f0 88bd bd0b 05bf 5fd9 c03a d0ce 8b3b
00000030: d20c 2ebd 7931 ebbd 632a 7b3c 837c e0bd
00000040: 2bc7 7fbb 2458 32bd b039 66bb 96fe 06bf
00000050: cd87 92bd f901 c1bd 19aa ddbd fbd6 9cbd
00000060: 50d4 d0bd 6b5e 80bd f1b5 06be ae94 87bd
00000070: bca8 213c 0b81 bfbd 107d 5fbd 948e f1be

layers.10.weight f4 [1, 32, 3, 3]
0.018932527 -0.054466654 -0.004195823 -0.009273108 0.013283261 -0.026350616 0.017828293 -0.035999972
-0.027965223 -0.1472149 -0.06667247 -0.0521192 -0.08690752 -0.073703 -0.14314775 -0.027501713
-0.05928218 -0.09797724 0.024474097 1.527551e-05 0.011171722 -0.019415017 -0.04872632 -0.0015385668
-0.045007523 -0.006155423 0.009130758 -0.09989779 -0.026104964 -0.045038022 -0.037616193 -0.09724728
-0.024182143 -0.039834205 -0.009251525 -0.042625256 -0.007315966 -0.020046659 -0.099532664 -0.00010643217
-0.06528261 -0.040203508 -0.041742902 -0.012161139 -0.05301072 -0.09618154 -0.08138884 -0.028172616
-0.09780224 -0.11097712 -0.0308692 -0.025326638 -0.11790169 -0.020228336 0.0053162533 -0.018760521
0.0028356384 -0.015993563 -0.010064657 -0.011806041 -0.006769474 -0.029718047 -0.0009470486 -0.0068206284
-0.032964118 0.009498953 0.035007883 0.00021729224 -0.016817102 -0.07325841 -0.06721021 -0.057109587
-0.052590135 -0.04940837 0.009178478 0.007500971 0.019815115 -0.02857629 -0.060922645 -0.057007223
-0.061051264 0.032503463 0.0050967764 0.07268069 -0.061458364 -0.06349431 0.010170249 -0.012267972
-0.037659284 -0.05135356 -0.016966637 -0.0167566 -0.0376918 -0.026842449 -0.015425314 -0.0322117
-0.035195548 -0.04361918 -0.018927207 -0.072921894 -0.13218461 -0.0335913 -0.098217964 -0.15200277
-0.05712951 -0.1003251 -0.09924442 -0.010771813 0.020794686 -0.08638147 0.038265903 -0.041638974
-0.073804244 -0.023865907 -0.020109678 0.03361883 0.06420732 -0.051190354 -0.15006089 0.008527989
-0.02603598 -0.020117424 0.0074171447 -0.023075065 -0.0074492805 0.03999784 -0.045610774 -0.09389209
-0.07564864 -0.09966599 -0.06591335 -0.09396491 -0.1291976 -0.044202916 0.0055561815 -0.0015594937
-0.034989696 -0.07733049 -0.010885305 -0.021141551 -0.071100205 0.012660825 -0.06971161 -0.030291988
-0.056326345 -0.1023215 -0.044111207 -0.13020091 -0.032012984 -0.012831358 -0.091148965 -0.022351384
-0.077423595 0.013407925 -0.093377374 0.03584035 -0.052190095 -0.0881494 0.0236859 -0.0094248215
0.007638934 -0.046963405 -0.025484394 -0.020798543 -0.009010352 0.014635458 0.03621092 0.02643414
-0.041256513 -0.02550868 0.026342155 0.05262974 -0.010944139 -0.0065126186 -0.042510364 -0.13225989
-0.096420325 0.022303756 -0.049405567 -0.022484362 -0.078347884 -0.014347929 -0.04101741 -0.024496516
-0.019465031 -0.06775475 -0.049725786 0.020137573 0.0010129594 -0.01203034 -0.007986868 -0.010143313
-0.0045982148 -0.016573835 -0.019152319 0.0049530347 -0.01096929 -0.023061411 -0.05202049 0.000508163
0.02368228 -0.04199746 -0.035140377 -0.053157438 -0.03951247 -0.054336898 0.048577234 -0.02120471
-0.04284494 0.006681242 -0.03638111 -0.024975698 -0.08778451 0.009129846 -0.08835838 0.0272601
-0.059044063 -0.014926375 -0.018896872 -0.032459795 -0.057973858 -0.04252083 0.013322285 -0.08749915
-0.038044564 -0.02848682 -0.07577741 0.00020487339 -0.06204543 -0.051564433 0.009405668 0.014434715
0.013744734 -0.023342432 0.103084356 -0.091434695 0.03427035 -0.07783962 -0.17367122 0.054195166
0.058325455 -0.10217977 0.19866458 -0.07814414 -0.022960193 -0.013227815 -0.012218579 -0.021010848
-0.058794446 -0.04618272 -0.082932755 -0.017143007 -0.09473257 -0.15424201 -0.053325024 -0.055618096
00000000: 6318 9b3c 6d18 5fbd 1d7d 89bb 3cee 17bc
00000010: 09a2 593c 3fdd d7bc a40c 923c b574 13bd
00000020: 5317 e5bc 81bf 16be 938b 88bd f17a 55bd
00000030: 92fc b1bd 99f1 96bd 5395 12be 464b e1bc
00000040: dfd1 72bd 4ba8 c8bd e77d c83c e823 8037
00000050: 9909 373c 3e0c 9fbc 4095 47bd bca9 c9ba
00000060: cf59 38bd 6eb3 c9bb 2d99 153c 3697 ccbd
00000070: 14da d5bc ca79 38bd 7013 1abd 9529 c7bd
00000080: a119 c6bc 3129 23bd b593 17bc d297 2ebd
00000090: c5ba efbb e438 a4bc c8d7 cbbd 5634 dfb8
000000a0: e4b2 85bd 6fac 24bd 9bfa 2abd 843f 47bc
000000b0: c521 59bd d4fa c4bd 31af a6bd 42ca e6bc
000000c0: 8a4c c8bd f947 e3bd 68e1 fcbc cf79 cfbc
000000d0: 7176 f1bd e5b5 a5bc f733 ae3b aaaf 99bc
000000e0: 1ed6 393b ef04 83bc 3be6 24bc 206e 41bc
000000f0: 77d2 ddbb 4373 f3bc 5b43 78ba 947f dfbb
00000100: 6205 07bd 7fa1 1b3c 6d64 0f3d f1d8 6339
00000110: 05c4 89bc 8108 96bd 82a5 89bd beeb 69bd
00000120: c168 57bd 6e60 4abd 5461 163c b5ca f53b
00000130: 4f53 a23c d318 eabc 068a 79bd 6880 69bd
00000140: e410 7abd 5a22 053d dc02 a73b 9dd9 943d
00000150: c4bb 7bbd 4e09 82bd 1ea1 263c 9bff 48bc
00000160: 9f40 1abd 1c58 52bd 9efd 8abc 2345 89bc
00000170: b862 1abd b2e4 dbbc 75ba 7cbc 6af0 03bd
00000180: 3529 10bd 06aa 32bd 3b0d 9bbc 1358 95bd
00000190: 675b 07be 0897 09bd 8026 c9bd 9da6 1bbe
000001a0: a200 6abd 3f77 cdbd a940 cbbd 427c 30bc
000001b0: 9e59 aa3c c5e8 b0bd b5bc 1c3d a18d 2abd
000001c0: ae26 97bd 6f82 c3bc 0dbd a4bc e6b3 093d
000001d0: 217f 833d faac 51bd 90a9 19be fab8 0b3c
000001e0: 6849 d5bc 4ccd a4bc 850b f33b eb07 bdbc
000001f0: 1819 f4bb c6d4 233d 5dd2 3abd 7f4a c0bd
00000200: aded 9abd af1d ccbd 94fd 86bd ad70 c0bd
00000210: 604c 04be 1e0e 35bd a110 b63b ed67 ccba
00000220: 5b51 0fbd 735f 9ebd 4758 32bc 0c31 adbc
00000230: fc9c 91bd 596f 4f3c f6c4 8ebd e726 f8bc
00000240: 74b6 66bd ef8d d1bd f4ad 34bd 6353 05be
00000250: 0c20 03bd 9e3a 52bc 4fac babd 401a b7bc
00000260: 4390 9ebd eaac 5b3c a33c bfbd 55cd 123d
00000270: 48c5 55bd ac87 b4bd ef08 c23c 916a 1abc
00000280: 0650 fa3b b35c 40bd a6c4 d0bc b561 aabc
00000290: 28a0 13bc 8fc9 6f3c e751 143d 698c d83c
000002a0: 97fc 28bd 94f7 d0bc 81cb d73c 4892 573d
000002b0: 0c4f 33bc ce67 d5bb 591f 2ebd 236f 07be
000002c0: 0578 c5bd 5eb6 b63c 7e5d 4abd 2031 b8bc
000002d0: db74 a0bd 9313 6bbc df01 28bd ebac c8bc
000002e0: 2175 9fbc 01c3 8abd 44ad 4bbd 8df7 a43c
000002f0: 47c5 843a e71a 45bc 5adb 02bc 2330 26bc
00000300: 9fac 96bb dac5 87bc 53e5 9cbc 114d a23b
00000310: 89b8 33bc 49eb bcbc 7013 55bd 3e36 053a
00000320: 5701 c23c 8705 2cbd 5bef 0fbd 9dbb 59bd
00000330: d4d7 21bd 5e90 5ebd ecf8 463d 80b5 adbc
00000340: 2d7e 2fbd 52ee da3b 5c04 15bd d699 ccbc
00000350: 5dc8 b3bd 5995 153c 3df5 b4bd 9350 df3c
00000360: 30d8 71bd c18d 74bc 9dcd 9abc 90f4 04bd
00000370: ff75 6dbd 522a 2ebd b745 5a3c c132 b3bd
00000380: 9ed4 1bbd 315d e9bc 3031 9bbd 48d3 5639
00000390: 5923 7ebd 3a35 53bd 3b1a 1a3c 957f 6c3c
000003a0: 9831 613c a138 bfbc e41d d33d 1d42 bbbd
000003b0: 115f 0c3d 616a 9fbd ded6 31be c0fb 5d3d
000003c0: ace6 6e3d a143 d1bd ba6e 4b3e 090a a0bd
000003d0: 0417 bcbc 7ab9 58bc 6f30 48bc f11e acbc
000003e0: 72d2 70bd 182a 3dbd a6d8 a9bd 7e6f 8cbc
000003f0: 2603 c2bd 9ef1 1dbe 576b 5abd cdcf 63bd
