best_model.pth (torch, 155627 bytes, 11 tensors)

layers.0.weight f4 [32, 2, 3, 3]
000000 e2 29 00 bc 12 10 0b 3e 6b 01 3f be 1a bf 2e be
       -0.007822486 0.13580349 -0.18652885 -0.17065087
000010 24 be 94 bd bf d8 9f 3d d4 a3 9b 3c 6b a6 69 3e
       -0.07262829 0.07805013 0.018999018 0.2281739
000020 de 9a 7a 3c a6 c2 15 bd de 3a 28 be c2 9c 17 be
       0.015295712 -0.036562584 -0.16428706 -0.14805892
000030 31 d8 9e be 56 3c 6d be ca ea 44 be 14 af e7 bc
       -0.31024316 -0.23167548 -0.1923019 -0.028281726
000040 60 ac 89 3d 32 de c1 3d 61 d3 72 be bc e5 35 be
       0.06722331 0.094662085 -0.23713447 -0.17763418
000050 ea 69 04 3c b8 e4 f4 3d 06 07 fb bd 86 cd cc 3d
       0.0080818925 0.11957687 -0.12257199 0.10000138
000060 b0 86 ef bd e1 13 55 bd b5 79 09 3e 64 ae 9d be
       -0.116956115 -0.05202091 0.13425334 -0.30797112
000070 f7 74 50 be 84 fc bd bd f7 b8 1b be d6 ff 29 3e
       -0.20357119 -0.09276679 -0.15207277 0.166015
000080 e0 5b 35 be 33 36 25 be f0 3c 50 be 9c 9d 82 be
       -0.17710829 -0.16133957 -0.20335746 -0.2551087
000090 b8 38 5d be 5c 76 fc 3d ce 9e d7 3c 3d c0 10 3d
       -0.21603668 0.12327263 0.026320841 0.035339583
0000a0 82 c1 89 bd fa b8 4c be 76 81 1d bd 3f 0d 99 be
       -0.06726362 -0.19992438 -0.03845354 -0.29892918
0000b0 e4 4b 7e be 7e c8 49 be 26 c2 91 3d fd d9 92 3d
       -0.24833637 -0.19705388 0.07117109 0.07170484
0000c0 19 03 3a be 25 6c b3 bd 28 75 80 3d b3 ca 12 3e
       -0.18165244 -0.08760861 0.06272346 0.14335136
0000d0 97 63 0b 3b 0c b9 42 bd 09 2f 4d 3d 8d 25 7d be
       0.0021269077 -0.047539756 0.050093684 -0.24721356
0000e0 77 50 82 bd 90 e5 94 be 66 4f 8b be 8c 22 6b be
       -0.06363004 -0.29081392 -0.27209014 -0.22962397
0000f0 05 95 87 ba bf 5f 5e bc 1c 09 7d be 56 13 28 bd
       -0.0010344094 -0.013572632 -0.24710506 -0.041034065
000100 0b c1 17 3d c0 e5 f6 bd 6b ca d0 bd f4 38 02 bd
       0.037049334 -0.1205554 -0.10194858 -0.031792596
000110 26 c0 7e 3d c3 ca eb 3d 52 f9 86 be 02 99 28 be
       0.062194966 0.11513283 -0.2636209 -0.16464618
000120 5f 98 e1 3c b3 dd 04 3e 47 09 15 3e 00 05 12 3e
       0.027538477 0.12975197 0.1455432 0.1425972
000130 ef 01 9a bc 80 9e 87 be cb 87 0b bd 3b 5d 50 be
       -0.01879975 -0.26488113 -0.03406505 -0.20348065
000140 07 5b 8a be 58 7f 0f 3e 31 19 de 3d 4a 73 93 be
       -0.27022573 0.14013422 0.10844649 -0.28798896
000150 fa d3 a5 bc 80 86 d9 bd f9 f0 b2 bd 24 39 28 be
       -0.02024268 -0.10621357 -0.08737368 -0.16428047
000160 54 20 f4 3c 0c d0 3d be 75 51 42 3d 9b 88 8c 3d
       0.029800572 -0.18536395 0.047440965 0.06861993
000170 59 46 fd 3d 5d dc 45 3d 1a 06 91 be ef 7e 4a be
       0.123669334 0.048305858 -0.28324968 -0.19774984
000180 e3 ac ae 3d d0 02 e0 3b 13 9d 62 be 51 bb 1d be
       0.08529069 0.006836273 -0.22130232 -0.15403487
000190 ff b4 47 3e 3f fb 01 3e 0f 47 ca bd df 6d 8c bd
       0.19502638 0.12693499 -0.098768346 -0.06856894
0001a0 43 6d 76 be 3d 55 30 bb c2 d4 3d be 27 37 45 be
       -0.24065118 -0.0026906275 -0.18538192 -0.1925932
0001b0 3a 17 e4 3c a1 b1 1d 3d de a3 be bd b0 3e 45 3e
       0.027843107 0.03849948 -0.09308599 0.19262195
0001c0 43 6a 0e be 3c 5b 5f 3e c9 f9 3f 3e 54 ec 61 be
       -0.13907723 0.21812147 0.18747629 -0.22062808
0001d0 9c 66 a6 bd f2 14 87 3c f6 aa ae 3c c3 e9 43 3d
       -0.0812504 0.01648948 0.021321755 0.047830354
0001e0 b4 a8 ea 3d 53 0d 8b 3c 19 c8 d0 bd 08 73 ea 3d
       0.11457959 0.016974127 -0.101944156 0.11447722
0001f0 17 e8 77 be a9 a8 0f be e0 3f d6 bd 9d 43 2b be
       -0.24209629 -0.14029182 -0.10461402 -0.16725011
000200 45 52 02 be 60 76 84 be 7f c1 fb bd e1 b2 45 bc
       -0.12726696 -0.25871563 -0.12292766 -0.012066574
000210 ef a5 58 be f3 ee 9a bd 0f 23 ec 3d d1 ee 87 bd
       -0.21157049 -0.07565107 0.115301244 -0.066373475
000220 2b d1 09 bd 96 18 63 bd 80 67 13 bc f8 38 bf 3d
       -0.033646744 -0.05544337 -0.008996844 0.09337038
000230 88 a8 31 3e 3e 85 b5 3d d0 50 28 3e c4 87 89 bd
       0.17349446 0.088633046 0.16437078 -0.06715348
000240 8b 07 62 be 75 03 f8 bd 3d 2c 1b 3e b0 d7 36 bc
       -0.2207319 -0.121100344 0.15153594 -0.011159822
000250 1b 24 02 be 3d b9 42 be 53 6e 6b be 9b 7e 55 be
       -0.12709086 -0.19015975 -0.22991304 -0.20849077
000260 43 24 69 bd 2d 5a e2 3d 4e 2a d6 3d a4 96 7f be
       -0.056919347 0.11052356 0.10457288 -0.24959809
000270 4f f3 04 3e c3 e6 51 be fa 3d 93 bd 68 46 d8 bd
       0.1298344 -0.20498185 -0.071895555 -0.10560304
000280 51 9e 7b bd f3 1a 86 bd 06 c5 29 be 63 dd a5 be
       -0.06143028 -0.06548109 -0.16579065 -0.32395467
000290 30 14 54 bd be 94 a9 3d aa 7c 64 be 88 02 a5 3d
       -0.051777065 0.082803234 -0.2231318 0.080571234
0002a0 42 10 05 be c2 d3 d6 bd 0b bf 5c 3e 9e 91 11 bd
       -0.12994483 -0.10489608 0.21557252 -0.035539262
0002b0 e2 da 75 3e d4 c2 24 3e 83 b8 61 be d6 f6 10 3e
       0.24009278 0.16089946 -0.22043042 0.1415666
0002c0 ef 2a 65 3c 1c 7a d8 bd da 95 40 3e 03 9d 0b be
       0.013987287 -0.105701655 0.18807164 -0.13634114
0002d0 a6 4b 66 bd e7 4a 08 be d5 a3 b0 3d 3a ee a1 3b
       -0.056224488 -0.13309823 0.086249985 0.004941729
0002e0 bc 16 53 3d 0d a6 b0 3c 31 f7 ee bd 28 11 e2 bd
       0.051535353 0.021563554 -0.11668242 -0.110384285
0002f0 90 87 82 be ed c7 37 3d ca 81 cf 3d fc b9 96 3d
       -0.2549405 0.0448684 0.10132177 0.073596925
000300 ee 67 5b be 17 ea 27 bd 2b 44 64 be f7 b6 33 be
       -0.21426365 -0.04099473 -0.22291629 -0.17550264
000310 4a 50 3f be 2a 50 ce 3c e4 da 5e be 01 e0 b0 bd
       -0.18682972 0.02518471 -0.21763188 -0.08636475
000320 ba 68 8d bd 72 39 93 3d f8 30 86 be 83 35 79 be
       -0.06904741 0.07188691 -0.26209235 -0.2433682
000330 b0 f4 59 be ae 95 ae 3d 26 02 26 be 34 be d6 3d
       -0.21284747 0.08524643 -0.16211757 0.10485497
000340 29 16 3d bc e5 73 8b bd 41 2c 8c bd 1c a6 e8 bd
       -0.011540928 -0.068092145 -0.06844378 -0.11359808
000350 c4 24 1d bd 89 c4 f1 bd 7c a1 84 bd dc f2 06 bd
       -0.03836514 -0.11805064 -0.06476113 -0.032946452
000360 07 9d 99 be 94 4a 77 be e2 b8 96 3d 87 96 9d be
       -0.30002615 -0.24149543 0.07359482 -0.30778906
000370 cf e2 0a be 26 ee ec 3d 9f 20 f0 bc ef 9a e0 bd
       -0.13563083 0.11568861 -0.02931243 -0.10967051
000380 df 88 a3 be 04 07 9f 3c d4 cf 70 be 12 65 17 be
       -0.31940362 0.019412525 -0.2351678 -0.14784649
000390 da 67 3b be 2e 5d e6 bd d1 a4 ac bd 1b e6 4b 3d
       -0.18301335 -0.11248241 -0.08429874 0.049779993
0003a0 c6 f5 e8 bd 2f e8 90 3d 41 26 09 3d 41 40 85 be
       -0.113750026 0.070755355 0.033483747 -0.26025584
0003b0 3e 4b 9f bb 5b 0a 8e be 58 46 58 be 25 4f 29 bd
       -0.0048612645 -0.27742276 -0.21120584 -0.041335244
0003c0 09 f1 04 bd 29 48 87 3d de 7d 3e be 8f 0b ae bd
       -0.03245643 0.0660556 -0.18602702 -0.084982984
0003d0 c4 d1 60 3d 59 a3 8d be b2 0e a5 3d 51 4b 86 be
       0.054887548 -0.27663687 0.080594435 -0.26229337
0003e0 a6 d0 38 bd 51 80 04 be 42 0e 43 be 0b d2 67 bc
       -0.045120858 -0.12939574 -0.19048408 -0.014149199
0003f0 3e 95 15 3e 9a 3f f6 bd ba ed 42 be f0 38 0d be
       0.14607713 -0.1202385 -0.19035998 -0.13791251

layers.0.bias f4 [32]
000000 ae d3 0a bd 69 12 81 be 90 bb 59 bb af 40 79 3d
       -0.03389328 -0.25209358 -0.0033223368 0.060852703
000010 2e 09 06 be 76 78 77 be 9b 69 46 be 38 f8 0a bc
       -0.1308944 -0.24167046 -0.19376223 -0.0084820315
000020 89 42 ba bc 02 d4 c9 bd f1 64 c4 bc 92 53 c2 bc
       -0.022736805 -0.098548904 -0.023973914 -0.02372149
000030 11 6f 5c 3b f8 38 d0 3c b4 b1 d2 bd 2d dd 46 be
       0.0033635537 0.02541779 -0.102878004 -0.1942031
000040 64 35 b6 bd 4d dd 75 3d 06 1b 05 3b bc d8 62 bc
       -0.08896902 0.060025502 0.0020310297 -0.013845619
000050 1c 3d 48 be 44 5f f0 3d 10 ce a3 3d 97 47 ad 3d
       -0.19554561 0.117369205 0.07998288 0.0846092
000060 38 9c 3c be 37 c4 30 be 37 26 5f be e6 ca f3 3d
       -0.18418968 -0.1726235 -0.21791922 0.11903934
000070 71 17 2d be 42 09 32 3d ec 2f 69 3c 8e 36 45 be
       -0.16903473 0.04346586 0.014232617 -0.19259092

layers.2.weight f4 [32, 32, 3, 3]
000000 99 72 88 3c f8 2e f1 3c c6 f2 1e 3c 61 bc 99 3d
       0.016656207 0.029441342 0.009701436 0.075066335
000010 87 78 3b 3e 95 ad be 3d 8d 00 e8 3d 82 2f 2f 3e
       0.18307696 0.09310452 0.1132823 0.17107967
000020 d4 d6 05 3e 8d 4f e7 3d a8 00 03 3e c1 92 a4 3d
       0.13070232 0.1129447 0.12793219 0.080358036
000030 96 2c 56 3d 69 33 e7 3d c7 5c 91 3d df 0d af 3c
       0.052288614 0.112891026 0.07097774 0.021368919
000040 8a 46 35 3d a5 b1 d1 3c e9 58 4e 3b ca 5c 6f bd
       0.044256724 0.025597403 0.00314861 -0.0584381
000050 fa 1f cd bd 5e ab 58 bd 0e 44 49 bc 6a fe fe bc
       -0.10015865 -0.052897803 -0.012284292 -0.031127173
000060 c0 54 f7 bc 47 0e 31 bd 9d d1 c2 bc c0 97 75 bd
       -0.03019178 -0.043226507 -0.023781592 -0.059959173
000070 63 97 8f bd f0 ad cf bd 03 b2 ba bd d0 d7 b5 bc
       -0.070112966 -0.10140598 -0.09115984 -0.022197634
000080 c7 2d a8 bd 51 84 1b bd 0b 98 e8 bc 3f ea 2c bd
       -0.08211856 -0.037967984 -0.028392812 -0.042215582
000090 f8 b6 ab bd 3e ec 3d 3c 5e a6 9e bd 23 bd 6c 3b
       -0.08384508 0.011591969 -0.07746576 0.0036123476
0000a0 12 c9 ba bd 76 90 69 bd 00 ed 2c bc fb 11 88 bd
       -0.09120382 -0.057022534 -0.010554552 -0.066440545
0000b0 14 a7 11 3c 73 81 99 bd ec dd b5 bd da 03 72 bd
       0.008889932 -0.074953936 -0.08880219 -0.059085704
0000c0 df d8 fb bc de 3a 2e 3c 09 d1 7e bd b4 bf 5d ba
       -0.03074306 0.010634152 -0.06221107 -0.0008459047
0000d0 c4 f9 24 bd 6c c5 c5 bc 5c 8b 91 3d b4 3a f6 bc
       -0.040277258 -0.02414199 0.07106659 -0.030057289
0000e0 c4 68 4a 3c c1 4f a3 3d 2f 28 00 3c de 5c 5b 3d
       0.01235408 0.07974196 0.0078220805 0.053555362
0000f0 a3 0a 5f 3b 08 2f 77 3d c4 19 38 bd 06 e9 80 bd
       0.003403344 0.060347587 -0.044946447 -0.06294446
000100 ac ec 8f bd 8f a0 2f bd 37 60 02 bd 78 b4 7d bc
       -0.070275635 -0.04287773 -0.03183004 -0.015484922
000110 30 04 93 bd 0e 24 63 bd 99 ce 98 bc eb c5 9f bd
       -0.07178533 -0.055454306 -0.018653201 -0.07801422
000120 d0 56 b3 ba f9 4f bc bd 57 b7 56 bd b5 be 6c bd
       -0.0013682488 -0.09194941 -0.05242094 -0.05779906
000130 d1 fa e6 bc 12 fc dc bb 8b a0 6f bd 37 69 ca bd
       -0.02819577 -0.0067439163 -0.058502715 -0.098833494
000140 c2 8e 64 bc 36 3c 8f bc 32 3b 61 bd 8d 0d b0 bd
       -0.013950052 -0.017484765 -0.054988094 -0.085963346
000150 57 49 c8 bc ff f8 47 bd d1 e6 34 be f8 83 e4 bd
       -0.024449034 -0.048821446 -0.17666174 -0.111579835
000160 92 56 91 bd c4 54 a5 be 73 35 05 bd 25 58 1b bd
       -0.0709659 -0.32291234 -0.032521676 -0.037925858
000170 b6 c9 96 bd 13 df c9 bc 0c 4a c9 bd 93 27 05 bd
       -0.07362692 -0.024642503 -0.098285764 -0.032508444
000180 0e c7 b3 bd e9 af 6b bd f6 b7 2e bd 06 a0 fa 3b
       -0.08778201 -0.057540808 -0.042655908 0.007648471
000190 05 c4 98 bd d2 cc da bb 36 0c 5e bd 16 7c a1 bd
       -0.07459263 -0.0066772485 -0.054210864 -0.07884996
0001a0 15 a0 cb bd 16 9f c8 bd 01 aa 1e 3c af d0 6e bd
       -0.099426426 -0.09795968 0.009684087 -0.058304485
0001b0 9d d9 2a bd 53 37 fe bc de 20 f8 bb c5 a1 a3 3b
       -0.04171144 -0.03103224 -0.0075722774 0.0049936497
0001c0 af 8d 47 3a d1 3a ba bd fa 6e 5f bd 4f 82 a6 bd
       0.000761236 -0.090932496 -0.054549195 -0.08130323
0001d0 c8 da a3 bd ed 7c fd bc 69 a3 1e 3c 7b 21 be bd
       -0.080007136 -0.030943358 0.009682515 -0.0928373
0001e0 ae 42 25 bc 47 59 9d bd cb 28 6c bd 56 93 9d 3a
       -0.010086698 -0.07683044 -0.05765609 0.0012022059
0001f0 b8 eb 72 bd f5 5a 25 bd 02 04 c1 bd 0e c3 bc bb
       -0.05930683 -0.040369947 -0.094245926 -0.005760557
000200 73 ce 82 bd 4e c1 c1 bd c2 a2 19 bd 6d ba c7 bd
       -0.06387033 -0.09460698 -0.037508734 -0.09752355
000210 9b d6 c4 bd 30 4b 47 bd 1d 26 d3 bb 3d 99 3b bd
       -0.09611245 -0.04865569 -0.0064437524 -0.045800436
000220 8a fb dc 3a 65 af 0a 3d 6e f2 15 3c f4 20 6d bd
       0.0016859632 0.033858676 0.009152038 -0.057892755
000230 b7 8a bc bc 9f 57 45 bd d0 4a 98 bd 7b e1 84 bc
       -0.023015363 -0.048179265 -0.07436144 -0.016220799
000240 83 69 90 3d b8 ed 87 3d d6 96 f2 3b 33 ee 4f 3d
       0.07051375 0.06637138 0.007403235 0.050764274
000250 76 1b 6a 3b 28 39 82 3d 54 b1 26 ba d3 75 a1 bc
       0.0035721934 0.06358558 -0.00063588214 -0.019709503
000260 b8 bf dc 3c 49 28 26 bc 39 0d cb bd 12 5c d3 3b
       0.026946887 -0.010141441 -0.099146314 0.0064501846
000270 6b 27 cb bc 79 ad b3 bd 85 7e 75 bd 35 f4 b2 3b
       -0.02479907 -0.08773322 -0.05993511 0.0054612407
000280 e1 3d bb bd 8e ff 82 bd 4e b9 36 bd 5b d5 ed bd
       -0.09142662 -0.063963994 -0.044610314 -0.1161296
000290 be 30 10 bd c6 4a d1 bc 87 72 a3 bc e3 f8 c7 bd
       -0.035202734 -0.02554835 -0.019952072 -0.09764268
0002a0 61 33 81 3c 5b 5b a3 bd ae 75 12 3c 31 5f d3 bd
       0.01577157 -0.07976409 0.00893919 -0.10320891
0002b0 94 de cb bd d6 b9 53 bc ce 56 2a bd cd 8e 37 bd
       -0.09954563 -0.012922725 -0.04158669 -0.04481392
0002c0 63 c0 a9 bd d2 e2 96 bd 8f b3 88 bd d5 5a de bd
       -0.08288648 -0.07367481 -0.06674873 -0.108571686
0002d0 3c 82 b5 3c d8 21 07 3d a5 b7 07 3d 55 f9 1d 3d
       0.022156827 0.03299126 0.03313412 0.03856786
0002e0 51 f5 ad 3d 84 f2 7c 3d be 03 1d bc f2 6f 9e bb
       0.08494056 0.06175472 -0.009583412 -0.0048351223
0002f0 0c f4 ca bb 55 cb 9e bd 07 97 3c bd 40 da 69 bd
       -0.0061936434 -0.07753626 -0.04604247 -0.057092905
000300 d9 ca 32 bc 6f 55 78 bd 85 1b 43 3b 0a 3f aa bd
       -0.01091262 -0.06062835 0.0029771042 -0.08312805
000310 a9 6a 1e bd ad 99 ff 3b 23 82 00 3c 1d 03 b2 bd
       -0.038675938 0.007800302 0.007843527 -0.08692
000320 45 40 12 bd 73 ea 32 bd 0d 08 a5 bd 5b 63 88 bd
       -0.035705823 -0.04368062 -0.08058176 -0.066595756
000330 8b 89 17 bd 5c 8a c5 bd 65 4a 20 bd 0f 56 97 bc
       -0.036996406 -0.096455306 -0.03913345 -0.018473653
000340 b4 68 8c bd 3d de 56 3b 19 da 48 bd 84 75 9f bc
       -0.06855908 0.0032786273 -0.04903612 -0.019465216
000350 e8 d4 44 3c 84 5f 81 bd fe 18 65 bc 28 54 80 bd
       0.012013651 -0.06317046 -0.013983009 -0.062660515
000360 98 54 3d bc 25 15 47 bc 92 9b f4 3c d6 46 05 bd
       -0.011555813 -0.012151037 0.029859338 -0.032538258
000370 f2 ee 3e 3c d3 83 1c 3d e7 c7 fe 3c 71 6c 46 bc
       0.011653649 0.038211655 0.03110118 -0.012110815
000380 f1 f1 57 3d e6 a3 82 bd aa f2 bc bd c4 da 9e bc
       0.052720968 -0.063789174 -0.09225972 -0.019391425
000390 03 b6 11 bd f0 f4 89 bd d3 73 82 bd fa 47 e4 bc
       -0.03557397 -0.06736171 -0.06369748 -0.027866352
0003a0 9c df 5d bd 8c 66 91 bb 7c 14 8f bd fe e0 a6 bd
       -0.05416833 -0.0044372734 -0.06986329 -0.081483826
0003b0 ca 7f 8a bd 9f 42 8c bd 43 ff 19 bd 07 3e 3d bc
       -0.06762655 -0.068486445 -0.037596952 -0.011550433
0003c0 21 71 70 bd a4 ab 66 bd 4f ab 66 bd 07 86 f3 bb
       -0.058701638 -0.056316033 -0.056315716 -0.007431749
0003d0 f5 b4 99 bd 95 51 ad bd 12 e4 b5 bc f8 b5 cf bd
       -0.07505218 -0.08462826 -0.022203479 -0.1014213
0003e0 d9 29 58 bd aa 1b 99 bd a6 2e 3e bc 06 29 df bd
       -0.052774284 -0.074759796 -0.011607802 -0.108964965
0003f0 98 00 9a bb 04 1b 79 3c 76 eb f6 bc 99 de 3f bd
       -0.004699778 0.015204195 -0.030141573 -0.046843145

layers.2.bias f4 [32]
000000 37 b4 67 bc 4d 10 a1 bd 77 0c b4 bc 45 9d 7f bd
       -0.014142088 -0.07864437 -0.0219786 -0.062405843
000010 07 fb 02 3d 1c 5d 0b be b9 ff c1 bd 53 75 b6 bc
       0.03197768 -0.13609737 -0.09472603 -0.022272741
000020 0d 20 87 bd 50 c9 8a bd 55 01 18 be d5 14 de 3a
       -0.0659791 -0.067766786 -0.14844258 0.0016943464
000030 47 09 8a bd c7 bc d7 bd c2 bc 9c bc 4c 45 2c 3d
       -0.06740051 -0.10534053 -0.019132975 0.042058274
000040 a1 b7 28 bd 55 1e 25 bd 97 35 a2 bd 97 41 f9 bd
       -0.041190747 -0.04031213 -0.07920378 -0.121707134
000050 57 09 44 bd 4c 2c 26 3b 24 dc 2f bd 1d 28 90 bd
       -0.04786047 0.0025355993 -0.04293455 -0.07038901
000060 db 62 75 bd 19 cd f5 bd d5 6f ca bd ea 0d 23 be
       -0.05990873 -0.1200201 -0.098846115 -0.15923277
000070 21 32 1f 3d a8 e7 69 bd a9 c8 f9 bd 06 bf a9 bd
       0.038866166 -0.05710569 -0.12196476 -0.08288388

layers.4.weight f4 [32, 32, 3, 3]
000000 d8 06 1d bd 4c dc 48 bd 9d 25 81 bd 9e 69 e0 bb
       -0.038336605 -0.049038216 -0.06306002 -0.006848528
000010 18 f8 37 bd 5c 8e 6f bd e6 c2 6a bc e0 e9 42 bd
       -0.044914335 -0.058485374 -0.014328694 -0.04758632
000020 3e 94 e7 bb e7 4f db 3c ee b8 42 3d b2 ea 8a 3d
       -0.0070672324 0.026771499 0.047539644 0.06783046
000030 b6 4a c0 bc b7 b3 bb b9 15 9d ae 3d 78 f6 06 3d
       -0.023473125 -0.00035801317 0.08526055 0.032949895
000040 ab 22 a1 3c 2d 76 9a 3d 25 b1 c1 3c 81 61 5a bb
       0.019669851 0.075420715 0.02364404 -0.0033322277
000050 87 6a 8e bd 09 07 fc 3c fa 64 92 bd 7d 03 9e bd
       -0.06953912 0.030765073 -0.07148166 -0.07715509
000060 f1 48 8c bc 94 df 09 bd f8 94 95 bd 3e d8 8c 3c
       -0.017124625 -0.033660486 -0.07303804 0.017192956
000070 33 d9 9e bc da 17 62 bd 44 fe 09 bc 79 fe 8a 3c
       -0.019390678 -0.055198528 -0.008422438 0.016967045
000080 c6 f7 e8 bc 1c 30 6e 3c e9 71 3c 3c e1 4a 33 bc
       -0.02843846 0.014537837 0.011501768 -0.0109431455
000090 fd 88 9e bd d3 3a b5 bd 7f ce 28 bd 58 aa 84 bd
       -0.07740972 -0.088491105 -0.041212555 -0.06477803
0000a0 d5 ac ca bd 3c f9 c7 bd 33 af b9 bd 12 46 48 bd
       -0.09896246 -0.097643346 -0.0906662 -0.04889495
0000b0 e3 d9 94 bd 59 82 9a bd 97 ab 08 bd 4e 7a 3b bd
       -0.07268121 -0.07544393 -0.033366766 -0.045770936
0000c0 22 35 1e bd 2c 44 8a 3c b8 db 9d 3c 5e 12 70 3c
       -0.03862489 0.01687821 0.01926981 0.014652817
0000d0 74 8a 2f 3d 38 c2 13 bc d9 92 94 3d 07 e2 ce 3d
       0.04285665 -0.009018473 0.072545715 0.10101705
0000e0 42 87 f1 3d b3 a3 ac 3d 21 21 1f 3e a2 0e 10 3e
       0.117933765 0.08429661 0.15539981 0.14068082
0000f0 03 83 81 3d 59 12 eb 3d 64 ae ed 3d 66 2c 52 bb
       0.063238166 0.11478109 0.11605528 -0.003206992
000100 6d 1f 7f bd 16 da 08 3d 8d 03 2d bd 1f 1c ae ba
       -0.06228583 0.033411108 -0.042239714 -0.0013283527
000110 0f 5d 5e bd b2 53 04 bb 3d 25 35 bd 63 c1 67 bd
       -0.054287966 -0.0020191488 -0.044224966 -0.056580912
000120 b3 be 1a be cb 37 98 bd 75 b6 b2 bd 12 c1 97 bd
       -0.15111808 -0.07432517 -0.08726207 -0.07409872
000130 ce c1 df bd f8 6e 99 bd 97 87 e5 bd 98 f6 1f bd
       -0.10925637 -0.07491869 -0.11207502 -0.03905353
000140 26 32 e8 bc 71 52 9a bd 9a 3f a6 3a d2 14 64 bd
       -0.028344225 -0.07535256 0.001268375 -0.05568392
000150 71 46 47 bb 3b 21 c2 bc 7c 39 5e 3c 90 1a 7c bd
       -0.0030406977 -0.023697486 0.01356351 -0.06154877
000160 ab 43 1d 3d ca c6 d4 3c d1 53 a7 bc e4 d7 a9 bc
       0.03839461 0.025973696 -0.020425709 -0.020732827
000170 d9 17 5f 3d 75 aa da bc 2f 1d 32 3d 7e 50 ec bb
       0.054466102 -0.026692608 0.043484863 -0.007211744
000180 f2 b7 08 bd af 54 1e 3d 03 f0 40 bb 62 74 78 bd
       -0.03337855 0.03865498 -0.0029439933 -0.060657866
000190 4a 01 b1 bb 56 33 53 3b 21 1f d8 3c 72 04 10 3d
       -0.005401765 0.0032226644 0.02638203 0.03516049
0001a0 2d d1 52 bb bf 0b 1d bd 5f cd 05 bd 9a 43 ab 3c
       -0.0032168136 -0.03834128 -0.03266656 0.020906258
0001b0 07 49 9c bd 93 c2 8d 3c 52 25 c4 3b 6f 04 ed b9
       -0.07631116 0.017304694 0.0059858942 -0.00045207466
0001c0 07 75 06 3c 95 fd 78 bd cd 38 d2 3b 1b b5 75 bb
       0.008206612 -0.06078871 0.0064154626 -0.003749198
0001d0 74 b6 f9 bb b6 6f 4e bd 47 60 92 3c 54 7e 12 bd
       -0.007620627 -0.050399505 0.017868174 -0.035765007
0001e0 fb c9 c5 bc c7 03 9d bd d9 b1 8f 3c 71 b0 9a bd
       -0.024144163 -0.07666736 0.017540859 -0.07553185
0001f0 65 1c 61 3c 56 be f3 3a f5 51 3d 3d 73 77 a0 bc
       0.01373968 0.0018596153 0.04622074 -0.019588208
000200 51 8b 20 3c 61 a8 09 3d cb 5d c8 bb ca 21 93 3c
       0.009798841 0.033607844 -0.0061146966 0.017960448
000210 5d 82 c7 3c 4f b6 9e 3c 02 a8 a0 3d 9b 00 62 bc
       0.024354154 0.01937404 0.07844545 -0.01379409
000220 44 55 07 be 34 fe 9e bd 1b 9b 87 bd d2 07 85 bd
       -0.1321612 -0.07763329 -0.06621381 -0.06495632
000230 d0 61 24 be 37 ed cf bd 80 33 fb bd 54 8f 62 bd
       -0.16052938 -0.10152667 -0.12265682 -0.05531247
000240 75 95 6a 3c ba 4f 40 bd 16 fe 83 bd ed b0 81 bd
       0.01431786 -0.046951033 -0.064449474 -0.06332574
000250 1e 7a c8 bc 70 aa 6a bc 71 a0 82 bd d5 46 68 bc
       -0.024472293 -0.014322862 -0.06378258 -0.014177044
000260 10 69 07 bd cc 08 36 3c be 1e 5b bd 42 46 78 bd
       -0.03305918 0.011110496 -0.053496115 -0.060613878
000270 53 c8 c8 bc 3f d5 e7 bc f3 28 d6 3b 5d 2a bf 3c
       -0.024509585 -0.028299926 0.0065356432 0.02333563
000280 4e d7 62 bd 9f df e6 3c 35 b7 82 ba d0 d6 bd 3c
       -0.05538111 0.028182803 -0.0009972813 0.02317372
000290 0c e5 e1 bb b8 62 1d bd 80 77 a0 bc 04 0a c2 bc
       -0.0068937596 -0.038424224 -0.019588232 -0.023686416
0002a0 da 1b 98 bd 88 16 45 bd a9 11 9b 3c b9 90 14 bd
       -0.07427187 -0.04811719 0.01892932 -0.03627083
0002b0 d2 c2 6f 3c f4 5e 7a bd fd 6d 87 3d 80 8a bf 3b
       0.014633851 -0.06112571 0.066127755 0.005845368
0002c0 72 fd 86 bc fa e6 1c 3d bc 5d f5 3c 0c c3 82 bd
       -0.016478274 0.038306214 0.029951923 -0.063848585
0002d0 2b af 0c bd 5b 97 e9 bc 24 bf 30 bd 72 ab 37 bd
       -0.03434674 -0.028514555 -0.043151036 -0.044841237
0002e0 10 82 3d bd 8e 98 07 bd 45 c1 9e bd 5d 2a a9 3c
       -0.046266615 -0.03310447 -0.07751707 0.020650083
0002f0 4d 1d 5d bd 35 c2 81 3d 80 c1 a6 bc 61 21 db 3c
       -0.05398302 0.0633587 -0.02035594 0.026749315
000300 e9 5e de 3c 3d f4 99 bc 99 74 07 3d 85 51 32 bc
       0.027144866 -0.01879322 0.03307018 -0.010883694
000310 a6 98 56 3d 49 50 8c 3d ff 0d 2b bd 6c 27 aa bc
       0.05239167 0.06851251 -0.041761395 -0.020770751
000320 b6 60 68 bd 9e fe 47 bc b2 aa af bd 77 ab 07 3d
       -0.056732856 -0.012206702 -0.085774794 0.033122506
000330 c3 8b 1b bd 72 31 96 bc 4e f2 c9 3c c1 67 c7 bc
       -0.037975084 -0.018334124 0.024651673 -0.024341466
000340 f2 72 ec bb 1e ca 19 3d 28 05 19 bd 15 40 10 3d
       -0.007215851 0.03754627 -0.037358433 0.035217363
000350 1d a1 a7 3c ac b9 07 bd c5 e5 0a 3c 28 c3 83 bc
       0.020462567 -0.033136055 0.008477633 -0.016084269
000360 c9 09 18 3d 23 e9 99 3d 5d f6 b5 3d 3c 95 c2 bc
       0.037118707 0.075151704 0.08884881 -0.023752801
000370 db 10 58 3d 26 cb 52 bc f6 10 58 3d 47 de 83 3d
       0.05275045 -0.012865817 0.05275055 0.064388804
000380 33 f5 c1 bc fc de 96 bd 15 e1 a4 bd ec 12 fa bc
       -0.02367649 -0.0736675 -0.080507435 -0.0305266
000390 dd ba 0e bc b8 0a 88 bd bd 89 c6 bc 21 c4 4c bd
       -0.008711544 -0.066426694 -0.0242356 -0.04999173
0003a0 ea b2 0d 3d bf fb 8e bd 72 aa 72 bd 95 43 a1 bc
       0.034594454 -0.069816105 -0.05924458 -0.019685546
0003b0 27 1a 79 bd fa 36 e4 3c 86 db 50 bd a3 56 b3 bc
       -0.060815956 0.027858246 -0.050990604 -0.021891898
0003c0 c3 eb 02 bd c0 34 ab 3c a3 08 b6 bc 3b c7 c9 3d
       -0.03196312 0.020899177 -0.022220915 0.09852453
0003d0 b1 d7 f2 bb 78 0e 20 3d d2 56 88 3b c4 e9 de bc
       -0.0074109663 0.0390763 0.0041607404 -0.027211078
0003e0 81 4f 9a bc 93 8f 50 3d 89 87 ad 3d 41 82 01 3d
       -0.018836739 0.050918173 0.08473117 0.03161836
0003f0 6b b9 65 bd f0 2e bb bb 61 da 9d 3b f1 cb b5 bd
       -0.05608503 -0.0057123825 0.0048172926 -0.08876789

layers.4.bias f4 [32]
000000 e0 4e 1d bc 93 95 81 3c 34 0f aa bc 28 2a c7 bd
       -0.009601325 0.015818393 -0.020759203 -0.097248375
000010 14 bd c5 bd 4c 8f c6 3b b0 1d d8 bc 32 ed 7a bd
       -0.096552044 0.006059563 -0.026381344 -0.061261363
000020 ed 00 19 3c f1 16 1d bb 04 2e 87 bd ea 98 d6 3c
       0.0093386 -0.0023969973 -0.06600574 0.026195962
000030 09 55 b2 3d 05 a1 14 bd 7e e8 8c bd 7d 07 39 3c
       0.087076254 -0.036286373 -0.06880282 0.011293289
000040 7a 53 b0 bd 3c 7e dd bd 8e b9 92 bd f4 2b e0 3b
       -0.08609672 -0.10815093 -0.07164298 0.006841177
000050 ac be 78 bd 20 12 ad 3d 04 e8 0a bd fc fe 05 bd
       -0.060728714 0.08450723 -0.033912674 -0.032713875
000060 a7 79 95 bc 0e 6d 96 bd 27 34 7f bd 71 c1 11 be
       -0.018246485 -0.07345019 -0.062305596 -0.14233948
000070 95 47 4e bd e1 fd 0d bd 83 49 1c bd 14 30 f9 bd
       -0.050361235 -0.034665946 -0.038156044 -0.12167373

layers.6.weight f4 [32, 32, 3, 3]
000000 3a fe b6 3d 8a c7 1e 3d 4b 96 8d 3c f1 6e b2 3d
       0.089352086 0.038764514 0.01728358 0.08712567
000010 c2 db 90 3d fb b1 f2 3c 99 0f 99 3d 07 a8 ca 3d
       0.070731655 0.029625883 0.07473678 0.0989533
000020 2e 5e 91 3c 30 29 46 bd 64 66 8f 3a e8 04 90 3b
       0.017745104 -0.048379123 0.0010940549 0.004395116
000030 de a8 90 bd 8b 12 8c bd f8 77 9e bd 0f 0c bb bd
       -0.07063459 -0.06839474 -0.07737726 -0.09133159
000040 cf 8c 99 bd 0e 1c 01 bc 5e eb f5 bc cd 38 c1 bd
       -0.0749756 -0.007880224 -0.030019458 -0.09434662
000050 2b 65 8f bd 22 fd d5 bd 48 22 a6 bd e8 b0 17 bd
       -0.07001718 -0.10448672 -0.081120074 -0.037033945
000060 b8 2f 00 bd 85 61 a7 bd 17 e8 f7 bd e9 a8 90 3d
       -0.03129551 -0.08172897 -0.121048145 0.07063467
000070 89 ac 32 3d 2b 7c af 3d 80 29 03 3e 3b 22 9b 3d
       0.043621574 0.08568605 0.128088 0.07574888
000080 5b 7e 7e 3d 15 6e 89 3d 17 b4 96 3d ef b2 b4 3d
       0.06213222 0.067104496 0.07358568 0.088231914
000090 3d 09 41 bd 6e b2 cc bd d3 c6 fb 3b c7 0c a5 bd
       -0.04712795 -0.0999497 0.007683614 -0.08059078
0000a0 19 ae 39 3c 49 4c 4d bd a8 e8 4b bd ca 3c 8e bc
       0.011333012 -0.05012158 -0.049782425 -0.01736297
0000b0 6b e8 93 bd 24 ed 39 bd ac bf 8a bd 37 5c b2 bd
       -0.072220646 -0.04539217 -0.0677484 -0.08708995
0000c0 65 16 12 bc 83 a6 3e bb 79 dc 9d bc e2 b1 3f 3c
       -0.008916472 -0.0029090948 -0.019270169 0.011700125
0000d0 51 33 84 bc 27 6d 7a 3b 2a 6d 39 3d 50 53 d6 3d
       -0.01613775 0.0038212033 0.045270123 0.10465109
0000e0 25 2a 9c 3d 1b 35 26 3d 17 36 af 3d 3c a6 43 bb
       0.07625226 0.04057799 0.08555239 -0.0029853722
0000f0 d9 2c 1b 3d 1d ec 6a 3c fe 7c cd 3d bc 1a 62 bd
       0.037884567 0.01433852 0.10033606 -0.055201277
000100 bf b7 e0 bc b4 1e cf bb f1 dd 93 bc d8 a7 93 bd
       -0.027431367 -0.006320799 -0.018050166 -0.07209748
000110 47 66 41 bd 9c 29 4c bc 18 00 98 bd 25 f1 34 bd
       -0.04721668 -0.012461092 -0.07421893 -0.044175286
000120 3e ec 8b 3d 2d 19 02 3e ce cd 1f 3e af 21 ef 3d
       0.06832169 0.12704916 0.15605852 0.116763465
000130 a4 e3 fc 3d 75 eb 28 3e 3e 13 c3 3d ef c0 93 3d
       0.123481065 0.1649607 0.095251545 0.072145335
000140 51 30 10 3e 54 c2 b5 bd 48 20 96 bc 7b 7b 01 bc
       0.14080931 -0.08874956 -0.01832594 -0.007902975
000150 4a 56 3f bd b3 03 d5 bd 12 0e a1 bc 44 55 10 bc
       -0.04671315 -0.10401096 -0.01966003 -0.008809391
000160 f7 30 57 bd 4b 58 d8 bb a5 c0 ba 3d 0a 8e a5 3d
       -0.05253693 -0.006602322 0.09118775 0.080837324
000170 6b bb f8 3d 38 c4 29 3d 26 e9 a1 3d 20 d3 c9 3c
       0.12145122 0.041446894 0.07905798 0.024636805
000180 ff 53 fa 3d f3 ef b7 3d 12 80 fb 3d 67 1f 81 3d
       0.12223052 0.089813136 0.12280287 0.06304818
000190 66 b9 26 3e 21 4b 19 3e da 38 25 3e 70 22 af 3d
       0.16281661 0.14970066 0.16134968 0.0855149
0001a0 34 57 38 3d 7a 31 cd 3d f6 9d 22 3e bb 34 1b 3e
       0.04500504 0.100192025 0.1588057 0.15156834
0001b0 9d dc b4 bd c7 4f b7 bd ee cc f7 bd cf ad aa bd
       -0.08831141 -0.08950763 -0.12099634 -0.083339326
0001c0 5a 23 a3 bd 73 dc a3 bd 36 93 af bd d7 11 ff bd
       -0.07965727 -0.08001032 -0.08573 -0.124545746
0001d0 2b 6b bc bd 4f 93 62 bc d4 17 c0 bd 04 b3 11 3c
       -0.09200128 -0.013829066 -0.09379545 0.008892778
0001e0 12 df cf bc a7 94 98 bc 17 3a 92 bc b6 11 c1 bb
       -0.025374923 -0.01862557 -0.017849965 -0.005892004
0001f0 0c 79 aa 3b 5c 4d 94 bd 0c 13 fe bc 19 fd 35 bc
       0.005202418 -0.07241318 -0.031014942 -0.011107706
000200 74 d0 d6 bd 3f c0 4a bc c4 43 d3 bd 8b 8d ae bd
       -0.10488978 -0.012374937 -0.1031566 -0.08523091
000210 5e 1b a8 bd 79 0e da bd e0 a2 de bd 76 e4 37 bc
       -0.08208345 -0.10647292 -0.1087091 -0.011223903
000220 05 62 c6 bd fd d0 98 bd e4 23 cf bd fb f4 8d bd
       -0.096866645 -0.07461736 -0.101142675 -0.06931492
000230 e6 53 3d bd 20 77 d6 bc 54 72 9c bd 5d b8 11 bd
       -0.04622259 -0.02617985 -0.07638994 -0.035576213
000240 5a b6 91 bc 74 bf a9 3a f7 e6 6c bd a0 12 b1 bd
       -0.017787147 0.0012950734 -0.057837453 -0.086461306
000250 dd 42 29 bc b1 91 8a bd 02 af d2 bd 3f 4d 8d bd
       -0.010330883 -0.0676607 -0.10287286 -0.06899499
000260 f3 d4 63 bd ab 46 0c bd 35 5c 76 3a 3d 6d a4 bb
       -0.055623006 -0.03424708 0.0009397895 -0.005017905
000270 69 2d 90 bd 5e 6f d0 3b c1 b4 90 bc 0d 3d ec bc
       -0.07039911 0.0063609323 -0.017664315 -0.028837705
000280 33 8b a9 bd df 5b 3c bd 9a fd e0 3d dc cc 93 3d
       -0.08278503 -0.045986053 0.10985871 0.07216808
000290 71 ee ea 3d 93 c5 ee 3d 53 3d 47 3d 28 1b 0d 3e
       0.1147126 0.11658778 0.048642468 0.1377989
0002a0 15 7a e7 3d e9 90 d4 3d e8 96 d4 3d 29 5f 4e bd
       0.11302582 0.10379202 0.103803456 -0.05038372
0002b0 18 1f 57 bd f5 4b 86 bd 57 4e 18 bd 13 41 7c bd
       -0.052519888 -0.065574564 -0.037184086 -0.061585497
0002c0 45 67 f2 3a 4a 37 87 bd 3a ab cc bd 38 9f 4d 3c
       0.0018493911 -0.066023424 -0.099935964 0.012550168
0002d0 b3 e8 08 3e dd 57 70 3d b6 74 18 3e 0b 2a 43 3d
       0.13370018 0.058677543 0.14888272 0.047647517
0002e0 45 42 92 3d ec 6b 93 3d b4 b0 df 3d 24 5e f0 3d
       0.07141546 0.07198319 0.10922375 0.11736706
0002f0 e7 1a 9f 3d 8a c5 ac 3d 8c 20 99 3d 80 db 1c 3e
       0.07768803 0.08436115 0.07476911 0.15318108
000300 1b 44 08 3e 4c ba e4 3d d1 f9 e3 3d 09 c3 dd 3d
       0.1330723 0.11168346 0.11131633 0.10828216
000310 83 74 98 3d 0a 16 7f 3d 13 01 e3 3b d2 9a 8d bd
       0.07444098 0.062276877 0.0069276183 -0.06914295
000320 d7 c9 a8 bd 98 1a 55 bd 97 49 e5 bc e6 99 c5 bd
       -0.08241623 -0.052027315 -0.027989192 -0.096484944
000330 ae 49 f6 bc f7 8f 48 bd aa 9b 96 bd 1c b4 1e bd
       -0.03006443 -0.04896542 -0.07353909 -0.038745984
000340 04 f0 24 bd 8b df d2 bd 28 2c 97 bc f1 3e c2 bc
       -0.04026796 -0.10296544 -0.018453673 -0.023711653
000350 fe ef a3 bd c5 da e1 bc 2a 3a 9e bd 5b 25 1b bb
       -0.08004759 -0.027570138 -0.07725938 -0.0023673389
000360 b2 c6 93 bd 64 d3 ca bc e6 c4 db bc 02 ba 49 bd
       -0.072156325 -0.024759002 -0.026827287 -0.049249656
000370 6d 2f a0 bd 85 96 92 bc 1b ac fa bc 50 05 96 bd
       -0.07821546 -0.017894039 -0.030599644 -0.07325232
000380 c0 69 5d bd 1e b2 ce 3d 98 f6 db 3c e1 c9 ae 3d
       -0.05405593 0.10092567 0.026850984 0.08534599
000390 6e a3 b6 3d e4 7e 9b 3c b8 21 af 3d e8 7a fd 3c
       0.089178905 0.018981405 0.08551353 0.030942395
0003a0 d2 4d c8 3c 10 94 04 3e 76 49 cc 3d 21 d8 e4 3d
       0.02445117 0.12947106 0.09974949 0.11174036
0003b0 88 3f fa 3d 81 1b 1d 3d 0d 42 39 3d 13 c2 90 3d
       0.12219149 0.038356308 0.045229007 0.07068267
0003c0 57 24 c0 3d ae 14 9d 3d 1f b7 86 3d 04 50 34 3c
       0.09381931 0.0766996 0.06577896 0.011005405
0003d0 77 89 9d bd 9c ac b0 bc 3d b5 c1 bc d3 f0 c4 bd
       -0.07692235 -0.021566682 -0.023645991 -0.09616246
0003e0 c8 6c 0e bd ee 36 ef bb 3c 11 a3 bd af 04 dd bd
       -0.03477171 -0.0073002493 -0.079622716 -0.10791909
0003f0 6a 92 40 3b 01 64 78 3c 6c cc d2 bb c6 75 c6 bc
       0.0029384145 0.015160562 -0.0064330604 -0.02422608

layers.6.bias f4 [32]
000000 f2 e9 f1 3c 64 eb 1c bd fb f8 28 3d 95 17 7f bd
       0.0295305 -0.038310423 0.04125307 -0.06227835
000010 7e e7 d9 bc 0b dc 42 bd 7e 00 03 be 95 98 a2 bd
       -0.026599642 -0.04757313 -0.12793157 -0.07939259
000020 df 22 55 3e 4e df e7 bc 00 c5 7b bc 73 33 d4 bc
       0.20814084 -0.028304722 -0.015366793 -0.02590344
000030 a7 17 c1 bd 95 ac da 3c 79 ae c8 3c 84 80 47 3d
       -0.094283395 0.026693622 0.024497258 0.048706546
000040 64 45 c5 3d e1 c6 4d bd 74 53 5e 3d 64 0c d0 3c
       0.09632376 -0.050238494 0.054278806 0.025396533
000050 fd 5f 2d bd 16 d3 5f bc cc e7 08 3d 6a 65 02 be
       -0.04232787 -0.013661167 0.033424184 -0.12733999
000060 5b f3 46 bd 68 74 30 bd d5 47 00 3d a3 5d f5 be
       -0.048571926 -0.043079764 0.031318504 -0.47923002
000070 a9 93 1e 3d 03 65 98 bc 4e b1 b3 bd 48 34 5d bd
       0.03871504 -0.018602854 -0.087740526 -0.054004937

layers.8.weight f4 [32, 32, 3, 3]
000000 25 60 8f bc 62 dd c3 bc fd b7 99 bc d4 77 22 bd
       -0.0175019 -0.023909274 -0.01876449 -0.03966506
000010 be 7a 87 39 35 97 bb 3b 6f 42 d2 bd df a5 cd bd
       0.00025840657 0.0057248124 -0.102665775 -0.10041403
000020 6b 8d 3c bd 92 76 b9 3c 0c c3 26 3d 63 90 c1 3b
       -0.046033304 0.022639547 0.040713355 0.005907105
000030 bc 97 8a 3d 0b 19 5a 3d c5 04 54 3d aa 3c de 3d
       0.06767222 0.05324654 0.05176236 0.108514145
000040 e7 d9 da 3d 8f 54 cc 3d 89 78 6f bd 61 0d d7 bd
       0.10686093 0.09977066 -0.05846456 -0.10500599
000050 4c fb 49 bd ab 76 d9 bd 93 ea fc bd 50 12 4e bc
       -0.04931192 -0.10618337 -0.12349429 -0.012577608
000060 b6 c7 c4 bd 26 35 ee bd 5d 67 d8 bd 5f 31 ee 3d
       -0.09608404 -0.11631231 -0.1056659 0.116305105
000070 a0 aa e1 3d cb 36 39 3d 62 8c 95 3c 4d a9 ef 3d
       0.11018872 0.04521827 0.018255416 0.117022134
000080 59 f6 a2 3d 97 19 e7 3d 5c e1 f8 3c 83 6e 8d 3d
       0.07957143 0.11284178 0.030380897 0.06905844
000090 bb c6 22 bd b4 99 cb bc 9c 36 74 bd d2 78 22 bc
       -0.039740305 -0.024853565 -0.059622392 -0.009916501
0000a0 75 de 1d bd 2c 8a 57 bd 01 5c 3f bd 10 d6 9a bd
       -0.03854223 -0.052622005 -0.0467186 -0.075603604
0000b0 22 ed 20 bd 78 fa 68 bd 80 00 9b bc f5 b4 20 bd
       -0.039288647 -0.05687949 -0.018921137 -0.039235074
0000c0 4c 42 cc bc 6b 96 07 3a 01 c6 26 bd da e8 89 bd
       -0.024933957 0.00051722553 -0.040716175 -0.06733866
0000d0 0c 57 1b bc ec c6 b4 bd df 61 0e 3d b2 8e e1 3c
       -0.009481203 -0.08827004 0.034761306 0.027533863
0000e0 71 8a 95 3d 16 ff 5b 3d 7b 2a 8e 3d ab 2b 92 3d
       0.07301796 0.053710066 0.06941696 0.07137235
0000f0 04 33 47 3d 74 04 d7 3c d0 e1 00 3e de 14 8c 3d
       0.048632637 0.02624724 0.1258614 0.068399176
000100 75 9e b5 3c 2a b9 e6 3d 51 e9 3b 3d a5 80 0b 3d
       0.022170285 0.11265786 0.045876805 0.03405823
000110 a6 4f 76 3d 99 3d a5 3d e5 11 d0 3d a5 28 b8 3c
       0.060134552 0.080683894 0.10159663 0.022480318
000120 40 d7 58 bb b4 b1 b0 bb 51 01 a6 bc 24 01 18 3a
       -0.0033087283 -0.0053922776 -0.0202643 0.000579851
000130 a8 6e 3d bd 26 16 60 bb e7 ac 19 bc 80 86 a1 bd
       -0.04624811 -0.003419289 -0.009379602 -0.07886982
000140 c7 42 ba 3b 46 b4 76 bd b8 bf ab bd 8a a3 a0 bd
       0.00568423 -0.060230516 -0.08386177 -0.078436926
000150 5d 82 f2 bd 5e da aa bd 26 1b b7 bd fe 79 31 bd
       -0.11841271 -0.083424315 -0.08940725 -0.04332923
000160 0f 9c cb bd cc ae 8d bc f5 e8 39 bc 2d d5 e3 bc
       -0.09941875 -0.017295264 -0.011347045 -0.027811611
000170 51 9e c0 bc 46 a3 67 bc 0c 91 2f bd 66 f7 99 bd
       -0.023512991 -0.0141380485 -0.042862937 -0.07517891
000180 6f 0f 9b bd 03 20 46 bd b9 f9 a5 bd 4e 87 27 3d
       -0.07571303 -0.048370373 -0.081042714 0.04090052
000190 83 15 20 bc 8d 93 3b 3d ae 93 35 3d 99 21 26 3d
       -0.009770754 0.045795012 0.04433029 0.040559385
0001a0 da 01 14 bc b1 c0 4a 3d 7a 9c 7b 3c 91 41 22 3d
       -0.009033645 0.04950017 0.015357131 0.03961331
0001b0 64 06 1f 3c 3c 08 ec 3c c2 fd 01 3d cb c9 23 3d
       0.0097061135 0.02881252 0.031736143 0.039987367
0001c0 9d 8d c2 3d c5 ad 9f 3a 9e f0 b1 bb 7a 54 41 3d
       0.09499667 0.0012182525 -0.005430295 0.047199704
0001d0 24 a7 8b bb 2f 15 0b bd f7 33 24 3c b8 ad a2 bd
       -0.004261868 -0.03395575 0.010022155 -0.079432905
0001e0 42 09 a7 bd b4 43 b7 b9 5d 10 4d bb 02 20 58 bd
       -0.08156063 -0.00034954923 -0.003129027 -0.0527649
0001f0 d1 26 75 bd 27 cc f4 3a 93 cc c9 bd 8a 23 31 bc
       -0.05985147 0.0018676565 -0.098534726 -0.010811696
000200 44 33 41 bd af fb 26 bc 53 db 74 bd 4c c7 a9 bd
       -0.04716803 -0.010191842 -0.059779476 -0.08289966
000210 fc b3 a0 bd 85 ab dc bd f8 cc ee bd 50 e1 04 3c
       -0.07846829 -0.10774902 -0.116601884 0.008110359
000220 46 fb 41 3c 26 78 62 bd 23 ea 87 bd 7d 1b 5b bb
       0.011839693 -0.055290364 -0.06636455 -0.0033433132
000230 3b 46 20 bc 12 af 7d bd b4 d0 ea ba c4 ff 8a bd
       -0.009782369 -0.06193454 -0.0017914982 -0.06787065
000240 5b df 40 bd dc 6e 66 bc 84 8b a2 bd bf 84 3d bd
       -0.04708801 -0.014064517 -0.07936767 -0.046269175
000250 ea 2b 19 bd 58 1e 4a bd 5d 82 d4 bd b8 5d 2b bd
       -0.037395395 -0.049345344 -0.10376427 -0.041837424
000260 ee e8 bf bd 52 d5 3c 3d 56 5d 1a 3d 51 cd d8 3c
       -0.093706 0.046101876 0.03768667 0.02646509
000270 c9 e5 39 3d dc 05 8d 3d dd 15 fc 3c bd f6 7e 3c
       0.045385156 0.06885883 0.030772144 0.015561757
000280 5d b4 da 3b 7c 1e ae 3d 0b 84 98 bd a0 fb 84 bd
       0.006674333 0.08501908 -0.0744706 -0.06493306
000290 06 97 d7 bc 0b 1b bb bd e4 f0 c7 bd a0 f9 a2 bc
       -0.02631713 -0.091360174 -0.09762743 -0.019894421
0002a0 7f 8f a4 bc be 22 71 bc 85 1c c8 bd d0 d2 0f bd
       -0.020087956 -0.014717756 -0.09771065 -0.035113156
0002b0 ec 18 d4 bd a7 6e 8c 3b 39 a6 cc bc b9 59 61 3b
       -0.10356316 0.0042856517 -0.024981605 0.0034385754
0002c0 c3 a6 a8 bd ee 0f ae bc 7e 45 43 bd cc 4f 54 bd
       -0.08234932 -0.02124783 -0.047673695 -0.051833913
0002d0 78 5f 01 bd 05 6e 5a bd 3b 37 ae bc a0 47 29 bc
       -0.031585187 -0.05332758 -0.02126657 -0.010332018
0002e0 49 72 17 bc 74 2d b7 bd 87 07 9e bc de 14 80 bd
       -0.009243556 -0.08944216 -0.019290699 -0.0625398
0002f0 bc b0 2c bd cb fb f9 bd 6c ea c1 bd fb 03 d1 bc
       -0.042160735 -0.12206229 -0.094685405 -0.025514593
000300 6a 13 ad bd 3b 03 96 bd be 12 2b bd 97 42 f7 bd
       -0.084509686 -0.07324835 -0.04176592 -0.12073248
000310 85 06 71 bd be 33 fb bd 67 46 35 bd 27 24 d2 bc
       -0.058844108 -0.122657284 -0.044256594 -0.025652004
000320 db 76 9d bc cc 4c 42 bc 8e ba 8f bc bc 06 33 bc
       -0.019221714 -0.01185913 -0.01754501 -0.010926899
000330 1b 89 99 bd 06 9e c1 bd 4f 2c 08 3c c1 0a a1 3d
       -0.07496854 -0.09453969 0.008311345 0.07863379
000340 7b 0b bc 3d d4 3a 83 3d 67 eb 56 3d d7 4b 62 3d
       0.09181877 0.06407705 0.05247059 0.055248108
000350 4f 0f 3d 3d 40 ec 9c 3c 7e ca cb 3d 1a 00 de 3d
       0.046157178 0.019155622 0.09950732 0.10839863
000360 6e 9f 0f bd 62 67 09 bc 80 68 9b bc 75 cc d9 bd
       -0.035064153 -0.008386465 -0.018970728 -0.106347
000370 b5 61 7f bd f9 50 90 bd 60 8e c8 bd 20 0d 91 bd
       -0.06234904 -0.07046694 -0.09792781 -0.070825815
000380 57 49 ea bd 53 35 ec 3c 98 ff 09 3d f8 f3 ee 3d
       -0.1143977 0.02883402 0.03369102 0.11667627
000390 c4 5d ce 3d ae 9d e8 3c b8 51 57 3d 56 d1 94 3c
       0.10076478 0.0283955 0.052568167 0.018166225
0003a0 8d 05 3a 3d 05 aa bc 3d 01 2f 87 bb c7 a9 87 bc
       0.04541545 0.09212116 -0.0041254763 -0.016560448
0003b0 dd c5 5b bd b5 03 1d bd a0 a6 5a bc aa be 02 3c
       -0.053655494 -0.038333613 -0.013345391 0.007980028
0003c0 e5 e3 56 3c df b5 37 bd 29 64 44 bd a1 d1 33 3d
       0.013115858 -0.04485118 -0.047947083 0.04390109
0003d0 b3 55 26 bd 6c e4 41 3d 22 00 0b 3d 45 df 4f 3d
       -0.040609073 0.04733698 0.033935674 0.050750036
0003e0 be e1 be 3d 46 46 ae 3d f2 b3 27 bc 82 1c 29 3c
       0.09320401 0.08509497 -0.010235773 0.010321738
0003f0 1f a8 33 bd 0c d1 95 bc 53 32 a8 bb 4c f9 8e bd
       -0.043861505 -0.018288158 -0.0051329522 -0.06981143

layers.8.bias f4 [32]
000000 98 24 94 bd 56 32 58 3d 2d 76 69 bd 7d 9f ca 3d
       -0.07233542 0.05278238 -0.056997467 0.09893701
000010 7f f6 b0 bd af 84 54 3d 47 14 da bd bc f0 48 bd
       -0.086407654 0.05188435 -0.10648399 -0.049057707
000020 3a 1e 39 bd 0a 1d 7f be c6 08 73 bd ad 85 6e 3d
       -0.045194842 -0.24913421 -0.05933454 0.058232952
000030 54 49 23 3b 9c 66 d4 bd 86 a6 c0 3d b7 0d ca bd
       0.0024915533 -0.10371134 0.09406762 -0.09865897
000040 fa e1 8c 3c 79 7a bb bc 9a c3 55 bb 4f 80 06 be
       0.017197598 -0.022885548 -0.0032617808 -0.13134883
000050 28 eb 15 bd c1 08 8b bc ea 35 c0 bd f6 90 56 bd
       -0.036601216 -0.016971948 -0.09385283 -0.05238434
000060 51 9a 90 bd 53 f6 56 bd 0d 4b 25 bc e6 31 27 bd
       -0.070606835 -0.052481007 -0.010088694 -0.04081907
000070 77 8e bc 3d 87 80 ac bd ca bd 51 bd f1 2a 98 bd
       0.092068605 -0.08422952 -0.051206388 -0.074300654

layers.10.weight f4 [1, 32, 3, 3]
000000 62 02 5e 3c 69 20 69 bd 6b f4 28 bc 37 ac 5e bc
       0.013550373 -0.056915674 -0.01031218 -0.013590864
000010 72 ca 27 3c 8e 2b 0b bd 81 0e 1d 3c fd 50 27 bd
       0.010241138 -0.033977084 0.0095859775 -0.04084872
000020 b1 cd 1a bd 0e 8c 1c be 05 1c 92 bd 76 36 8a bd
       -0.03779382 -0.15287802 -0.071342506 -0.06748669
000030 39 71 aa bd 4c b9 98 bd a9 78 1b be bf 78 36 bd
       -0.08322377 -0.074572176 -0.15182747 -0.044548746
000040 ea 4c 95 bd 48 2a f6 bd 51 e9 4d 3c 5d e3 04 bc
       -0.07290061 -0.12019783 0.012567834 -0.008110848
000050 8c 75 50 bc b7 1d 1e bc 40 69 b3 bd e0 c4 b0 bb
       -0.012723338 -0.009650639 -0.08760309 -0.005394563
000060 9a a5 93 bd d6 80 16 bd 1a 38 21 bc 8e 0b 02 be
       -0.0720932 -0.03674396 -0.009840036 -0.1269972
000070 65 51 00 bd 61 50 a9 bd b1 74 67 bd 73 68 11 be
       -0.031327624 -0.08267284 -0.05650777 -0.142
000080 34 71 a8 bd 63 9b a4 bd 09 a5 26 bd 97 cd da bd
       -0.08224717 -0.0803745 -0.040684734 -0.106837444
000090 f6 87 e6 bc 49 8a 00 bd ec d2 da bd 15 11 14 bc
       -0.028141003 -0.03138188 -0.106847614 -0.009037276
0000a0 cc 53 91 bd 14 94 49 bd 50 d5 7e bd a4 98 cb bc
       -0.07096061 -0.049213484 -0.06221515 -0.024853058
0000b0 43 c6 8b bd 17 10 da bd c5 40 a1 bd ae b9 78 bd
       -0.06824925 -0.106476 -0.07873682 -0.060723953
0000c0 cb a2 ba bd 55 3a d6 bd 59 77 60 bd d7 46 59 bd
       -0.091130815 -0.10460345 -0.05480132 -0.053046074
0000d0 d1 1e 05 be 8a 1f 8f bd 6d 28 1b bd 61 8a 88 bd
       -0.13000037 -0.069884375 -0.03788035 -0.06667019
0000e0 40 f9 6c bc 96 f9 1c bd 48 0c 65 bc 12 75 98 bd
       -0.014463723 -0.03832396 -0.013979979 -0.074442044
0000f0 72 c0 90 bd 28 f7 a8 bd ed c4 4f bd f0 7a b8 bb
       -0.07067956 -0.08250266 -0.050724912 -0.0056298897
000100 55 b2 03 bd ec b0 aa 3b 94 91 11 3d 40 c9 f2 b9
       -0.032152493 0.005209079 0.035539225 -0.0004630778
000110 44 81 af bc df 29 9c bd ba ab 8d bd 97 79 7f bd
       -0.021423943 -0.07625174 -0.0691752 -0.062371816
000120 3b ec 70 bd 62 4e 5d bd 40 8c 3d ba 50 ce 9c ba
       -0.058819037 -0.05402983 -0.0007230677 -0.0011963341
000130 d8 87 2d 3c c4 19 2c bd 54 da 8a bd 95 e4 7f bd
       0.01059147 -0.04201676 -0.06779924 -0.062473852
000140 a1 0f 8f bd 1f 07 2a bd 85 94 3e bd 08 82 c8 bc
       -0.06985403 -0.041510697 -0.046528358 -0.024476066
000150 ca d1 70 bd 20 5b 8d bd 1d 8a 97 bc 18 6e 28 bd
       -0.05879382 -0.06902146 -0.018498475 -0.04112062
000160 9d f7 64 bd fd 7f e9 bd 37 a7 94 bd 57 dc 80 bc
       -0.055900205 -0.11401365 -0.07258456 -0.015730066
000170 e8 41 81 bd 69 82 61 b7 df 50 30 bd 38 d3 01 bd
       -0.06311399 -1.3441409e-05 -0.043045875 -0.031695575
000180 59 be 67 3b bf a7 a6 bd e2 45 2a bc 76 8b 9c bd
       0.0035361259 -0.08137464 -0.010392638 -0.076437876
000190 3d 1a 03 be 53 fb 3b bd 10 af be bd a8 91 16 be
       -0.12802978 -0.04589398 -0.09310734 -0.14704001
0001a0 9b f5 88 bd 6b a3 e5 bd ff 3b d5 bd da be 12 bd
       -0.066874705 -0.1121281 -0.10411834 -0.03582654
0001b0 82 d5 97 bb 98 e4 aa bd d1 06 c6 ba 8b 1b 14 bd
       -0.0046336064 -0.08344382 -0.0015108233 -0.03615908
0001c0 00 0b 8a bd 9c ed 66 bd b7 c2 4b bd 2d 30 9b 3b
       -0.06740379 -0.056378946 -0.04974624 0.0047359676
0001d0 a5 0c 49 bc 2d 55 a9 bc 75 2d f4 bd 2f 41 3a bc
       -0.012271081 -0.020670498 -0.11922733 -0.01136808
0001e0 bb 9e d5 ba cd 36 45 bc c4 de f1 bc fc 63 1a bd
       -0.0016297916 -0.012036991 -0.029525168 -0.03769301
0001f0 61 8e d7 bc 61 1b e4 bc ca bc 73 bd 86 c9 cb bd
       -0.026313009 -0.027845087 -0.059506215 -0.09950547
000200 39 ce d1 bd 23 ff bc bd 6e 8f 86 bd f8 b8 e7 bd
       -0.10244412 -0.09228351 -0.06570326 -0.11314577
000210 16 3a 16 be 88 f3 82 bd ab 98 25 bd 6a de 57 3c
       -0.14670596 -0.06394106 -0.0404288 0.013175586
000220 e6 5d b6 bc 53 36 a1 bd 7c 69 db 3b ca 67 5a bc
       -0.022261571 -0.0787169 0.0066959243 -0.013330409
000230 53 1f 9d bd 3c db 47 3c f6 74 9d bd 0b 65 5b bd
       -0.0767199 0.012198266 -0.07688324 -0.05356316
000240 db be 84 bd 5e df da bd e1 72 78 bd dc f7 02 be
       -0.06481715 -0.10687135 -0.060656432 -0.12789863
000250 45 88 0d bd 7b b1 d7 bc af d8 d4 bd 13 8a 0f bd
       -0.034553785 -0.026329746 -0.103928916 -0.035043787
000260 48 f9 d0 bd 19 ad 1c 3b 8b 92 c0 bd fb 90 86 3c
       -0.102037966 0.0023906885 -0.09402951 0.016426554
000270 39 a8 5d bd be 53 b4 bd f2 4b e5 3b ee 47 c4 bc
       -0.054115508 -0.08805035 0.006997579 -0.02396008
000280 38 be ba ba 48 13 92 bd 4f 29 b9 bc 02 3e 91 bc
       -0.0014247363 -0.07132584 -0.022602705 -0.017729763
000290 2f 71 3e bc 4d d5 86 3c e2 38 0f 3d 2b a3 98 3c
       -0.011623665 0.016459132 0.034966357 0.018632492
0002a0 5c 10 37 bd f7 82 ea bc f0 f7 86 3c 96 23 42 bc
       -0.044693336 -0.028626902 0.016475648 -0.011849305
0002b0 dd c7 07 bd 83 17 2b bd 23 e8 68 bd df 87 fb bd
       -0.03314959 -0.04177047 -0.056862008 -0.12281775
0002c0 96 3a b7 bd 8e a1 a4 bc b2 52 75 bd 07 e1 82 bd
       -0.08946721 -0.020096567 -0.059893318 -0.06390577
0002d0 8c 47 a4 bd 15 c7 db bc a0 15 6c bd b5 34 c5 bc
       -0.08021459 -0.026828328 -0.05763781 -0.024072984
0002e0 6e 8a e0 bc 49 91 a5 bd e8 a2 82 bd 0f d0 33 3c
       -0.027409758 -0.080843516 -0.06378728 0.010974898
0002f0 19 7f 4e bc 3f 23 f4 bc 1c 14 99 3c 69 96 00 bd
       -0.012603545 -0.029801963 0.018686347 -0.031393442
000300 b8 3a 8b bc 03 e9 64 bd 9e 31 be bc a3 68 a6 bc
       -0.016995773 -0.05588628 -0.023217019 -0.020313567
000310 84 f9 eb 3c 18 13 98 bc cd e4 7b bd 7d f0 9e bb
       0.028805502 -0.018563792 -0.0614975 -0.004850446
000320 ef ef bf 3b 4f c7 19 bd 73 93 0d bd 1a df 82 bd
       0.0058574597 -0.03754359 -0.034564447 -0.063902095
000330 1e a7 49 bd 41 90 84 bd 1b eb 9c 3c ca 8e 07 bd
       -0.04923164 -0.06472827 0.019155076 -0.03309516
000340 70 7c 40 bd ee 49 05 bc 3c e2 19 bd 54 27 c8 bc
       -0.046993673 -0.008135302 -0.03756927 -0.024432816
000350 80 2f c6 bd 9a c7 54 bb a3 32 c3 bd 78 a8 db 3b
       -0.09677029 -0.0032467605 -0.095311426 0.0067034326
000360 13 5b 6b bd 66 73 4d bc 7a 4f cd bc 55 fc f7 bc
       -0.057459902 -0.01253972 -0.025062311 -0.030271688
000370 22 9e 6a bd 03 66 4b bd c8 6e 09 3c bf e8 be bd
       -0.057279713 -0.049657833 0.008388229 -0.093217365
000380 3f d8 55 bd b5 af 08 bd ba b7 9a bd 0b 18 6f bc
       -0.05220818 -0.033370692 -0.07554574 -0.014593135
000390 f6 ee 7c bd e1 1c 58 bd 47 5f b1 bb f0 c2 86 ba
       -0.06175133 -0.052761916 -0.0054129693 -0.0010281485
0003a0 8d 94 c8 3a 8c ea 46 bd 12 d9 96 ba 66 18 86 bd
       0.0015303061 -0.048563525 -0.0011508784 -0.065476224
0003b0 dc cb 89 bd 33 a3 87 bd 03 a8 b4 bd 63 d2 85 bb
       -0.06728336 -0.06622925 -0.08821108 -0.004083918
0003c0 1a e0 ab bc 49 4a 9b bd 96 0c e1 bb b6 30 ae bd
       -0.020980883 -0.07582528 -0.0068679554 -0.085053846
0003d0 16 98 ed bc 54 fb ca bc 0a f5 7a bc 56 c0 d9 bc
       -0.029003184 -0.024778046 -0.015317211 -0.02658097
0003e0 eb df 89 bd 9f 84 62 bd 6f 80 bb bd 50 f1 06 bd
       -0.06732162 -0.05530226 -0.09155356 -0.032944977
0003f0 3f 06 d2 bd b3 62 1c be 1f 36 a0 bd aa 20 64 bd
       -0.102550976 -0.15272026 -0.07822823 -0.055695213
